{
  "layers" : [
    {
      "pad_r" : 1,
      "fused_relu" : 0,
      "fused_tanh" : 0,
      "debug_info" : "input.1",
      "pad_fill_mode" : 0,
      "pad_b" : 1,
      "pad_l" : 1,
      "top" : "input.1",
      "blob_weights" : 3,
      "K" : 3,
      "blob_biases" : 1,
      "stride_x" : 2,
      "name" : "input.1",
      "has_batch_norm" : 0,
      "type" : "convolution",
      "n_groups" : 1,
      "pad_t" : 1,
      "stride_y" : 2,
      "has_biases" : 1,
      "C" : 16,
      "bottom" : "image",
      "weights" : {

      },
      "Nx" : 3,
      "pad_mode" : 0,
      "pad_value" : 0,
      "Ny" : 3,
      "n_parallel" : 1
    },
    {
      "bottom" : "input.1",
      "weights" : {

      },
      "mode" : 3,
      "debug_info" : "input.3__silu_sigmoid__",
      "top" : "input.3__silu_sigmoid__",
      "type" : "activation",
      "name" : "input.3__silu_sigmoid__"
    },
    {
      "bottom" : "input.1,input.3__silu_sigmoid__",
      "alpha" : 1,
      "operation" : 1,
      "weights" : {

      },
      "fused_relu" : 0,
      "debug_info" : "input.3",
      "top" : "input.3",
      "type" : "elementwise",
      "name" : "input.3",
      "beta" : 0
    },
    {
      "pad_r" : 1,
      "fused_relu" : 0,
      "fused_tanh" : 0,
      "debug_info" : "input.5",
      "pad_fill_mode" : 0,
      "pad_b" : 1,
      "pad_l" : 1,
      "top" : "input.5",
      "blob_weights" : 7,
      "K" : 16,
      "blob_biases" : 5,
      "stride_x" : 2,
      "name" : "input.5",
      "has_batch_norm" : 0,
      "type" : "convolution",
      "n_groups" : 1,
      "pad_t" : 1,
      "stride_y" : 2,
      "has_biases" : 1,
      "C" : 32,
      "bottom" : "input.3",
      "weights" : {

      },
      "Nx" : 3,
      "pad_mode" : 0,
      "pad_value" : 0,
      "Ny" : 3,
      "n_parallel" : 1
    },
    {
      "bottom" : "input.5",
      "weights" : {

      },
      "mode" : 3,
      "debug_info" : "input.7__silu_sigmoid__",
      "top" : "input.7__silu_sigmoid__",
      "type" : "activation",
      "name" : "input.7__silu_sigmoid__"
    },
    {
      "bottom" : "input.5,input.7__silu_sigmoid__",
      "alpha" : 1,
      "operation" : 1,
      "weights" : {

      },
      "fused_relu" : 0,
      "debug_info" : "input.7",
      "top" : "input.7",
      "type" : "elementwise",
      "name" : "input.7",
      "beta" : 0
    },
    {
      "pad_r" : 0,
      "fused_relu" : 0,
      "fused_tanh" : 0,
      "debug_info" : "input.9",
      "pad_fill_mode" : 0,
      "pad_b" : 0,
      "pad_l" : 0,
      "top" : "input.9",
      "blob_weights" : 11,
      "K" : 32,
      "blob_biases" : 9,
      "name" : "input.9",
      "has_batch_norm" : 0,
      "type" : "convolution",
      "n_groups" : 1,
      "pad_t" : 0,
      "has_biases" : 1,
      "C" : 32,
      "bottom" : "input.7",
      "weights" : {

      },
      "Nx" : 1,
      "pad_mode" : 0,
      "pad_value" : 0,
      "Ny" : 1,
      "n_parallel" : 1
    },
    {
      "bottom" : "input.9",
      "weights" : {

      },
      "mode" : 3,
      "debug_info" : "81__silu_sigmoid__",
      "top" : "81__silu_sigmoid__",
      "type" : "activation",
      "name" : "81__silu_sigmoid__"
    },
    {
      "bottom" : "input.9,81__silu_sigmoid__",
      "alpha" : 1,
      "operation" : 1,
      "weights" : {

      },
      "fused_relu" : 0,
      "debug_info" : "81",
      "top" : "81",
      "type" : "elementwise",
      "name" : "81",
      "beta" : 0
    },
    {
      "begin_104" : 0,
      "begin_63" : 0,
      "begin_59" : 0,
      "begin_64" : 0,
      "begin_105" : 0,
      "begin_65" : 0,
      "begin_0" : 0,
      "begin_70" : 0,
      "begin_66" : 0,
      "begin_106" : 0,
      "begin_110" : 0,
      "begin_2" : 0,
      "begin_71" : 0,
      "begin_67" : 0,
      "begin_68" : 0,
      "begin_107" : 0,
      "begin_111" : 0,
      "begin_4" : 0,
      "begin_72" : 0,
      "begin_73" : 0,
      "begin_69" : 0,
      "begin_6" : 0,
      "begin_74" : 0,
      "begin_108" : 0,
      "type" : "split_nd",
      "begin_8" : 0,
      "begin_112" : 0,
      "begin_75" : 0,
      "begin_10" : 0,
      "begin_80" : 0,
      "begin_76" : 0,
      "begin_109" : 0,
      "begin_113" : 0,
      "begin_11" : 0,
      "nd_axis" : 1,
      "begin_81" : 0,
      "begin_77" : 0,
      "begin_114" : 0,
      "begin_12" : 0,
      "begin_78" : 0,
      "begin_82" : 0,
      "begin_13" : 0,
      "begin_83" : 0,
      "begin_79" : 0,
      "begin_115" : 0,
      "begin_14" : 0,
      "begin_84" : 0,
      "begin_15" : 0,
      "begin_85" : 0,
      "begin_116" : 0,
      "begin_120" : 0,
      "begin_20" : 0,
      "begin_86" : 0,
      "begin_16" : 0,
      "begin_90" : 0,
      "begin_21" : 0,
      "begin_91" : 0,
      "begin_87" : 0,
      "begin_17" : 0,
      "begin_117" : 0,
      "begin_121" : 0,
      "begin_18" : 0,
      "begin_92" : 0,
      "begin_88" : 0,
      "begin_22" : 0,
      "begin_23" : 0,
      "begin_89" : 0,
      "begin_19" : 0,
      "begin_93" : 0,
      "begin_118" : 0,
      "begin_122" : 0,
      "begin_24" : 0,
      "begin_94" : 0,
      "begin_25" : 0,
      "begin_95" : 0,
      "begin_119" : 0,
      "begin_123" : 0,
      "begin_30" : 0,
      "begin_26" : 0,
      "begin_96" : 0,
      "begin_124" : 0,
      "begin_31" : 0,
      "begin_97" : 0,
      "begin_27" : 0,
      "begin_28" : 0,
      "begin_98" : 0,
      "begin_32" : 0,
      "begin_125" : 0,
      "begin_33" : 0,
      "begin_29" : 0,
      "begin_99" : 0,
      "begin_1" : 0,
      "weights" : {

      },
      "begin_34" : 0,
      "bottom" : "81",
      "begin_3" : 0,
      "begin_126" : 0,
      "begin_35" : 0,
      "begin_5" : 0,
      "begin_36" : 0,
      "begin_40" : 0,
      "begin_127" : 0,
      "name" : "83",
      "begin_41" : 0,
      "begin_37" : 0,
      "begin_7" : 0,
      "begin_42" : 0,
      "begin_38" : 0,
      "begin_9" : 0,
      "begin_39" : 0,
      "begin_43" : 0,
      "begin_44" : 0,
      "begin_45" : 0,
      "begin_50" : 0,
      "begin_46" : 0,
      "begin_51" : 0,
      "begin_47" : 0,
      "begin_100" : 0,
      "begin_52" : 0,
      "debug_info" : "83",
      "begin_48" : 0,
      "top" : "83_0,83_1",
      "begin_101" : 0,
      "begin_53" : 0,
      "begin_49" : 0,
      "begin_54" : 0,
      "begin_55" : 0,
      "begin_102" : 0,
      "begin_60" : 0,
      "begin_56" : 0,
      "begin_103" : 0,
      "begin_57" : 0,
      "begin_61" : 0,
      "begin_62" : 0,
      "begin_58" : 0
    },
    {
      "pad_r" : 1,
      "fused_relu" : 0,
      "fused_tanh" : 0,
      "debug_info" : "input.13",
      "pad_fill_mode" : 0,
      "pad_b" : 1,
      "pad_l" : 1,
      "top" : "input.13",
      "blob_weights" : 15,
      "K" : 16,
      "blob_biases" : 13,
      "name" : "input.13",
      "has_batch_norm" : 0,
      "type" : "convolution",
      "n_groups" : 1,
      "pad_t" : 1,
      "has_biases" : 1,
      "C" : 16,
      "bottom" : "83_1",
      "weights" : {

      },
      "Nx" : 3,
      "pad_mode" : 0,
      "pad_value" : 0,
      "Ny" : 3,
      "n_parallel" : 1
    },
    {
      "bottom" : "input.13",
      "weights" : {

      },
      "mode" : 3,
      "debug_info" : "input.15__silu_sigmoid__",
      "top" : "input.15__silu_sigmoid__",
      "type" : "activation",
      "name" : "input.15__silu_sigmoid__"
    },
    {
      "bottom" : "input.13,input.15__silu_sigmoid__",
      "alpha" : 1,
      "operation" : 1,
      "weights" : {

      },
      "fused_relu" : 0,
      "debug_info" : "input.15",
      "top" : "input.15",
      "type" : "elementwise",
      "name" : "input.15",
      "beta" : 0
    },
    {
      "pad_r" : 1,
      "fused_relu" : 0,
      "fused_tanh" : 0,
      "debug_info" : "input.17",
      "pad_fill_mode" : 0,
      "pad_b" : 1,
      "pad_l" : 1,
      "top" : "input.17",
      "blob_weights" : 19,
      "K" : 16,
      "blob_biases" : 17,
      "name" : "input.17",
      "has_batch_norm" : 0,
      "type" : "convolution",
      "n_groups" : 1,
      "pad_t" : 1,
      "has_biases" : 1,
      "C" : 16,
      "bottom" : "input.15",
      "weights" : {

      },
      "Nx" : 3,
      "pad_mode" : 0,
      "pad_value" : 0,
      "Ny" : 3,
      "n_parallel" : 1
    },
    {
      "bottom" : "input.17",
      "weights" : {

      },
      "mode" : 3,
      "debug_info" : "105__silu_sigmoid__",
      "top" : "105__silu_sigmoid__",
      "type" : "activation",
      "name" : "105__silu_sigmoid__"
    },
    {
      "bottom" : "input.17,105__silu_sigmoid__",
      "alpha" : 1,
      "operation" : 1,
      "weights" : {

      },
      "fused_relu" : 0,
      "debug_info" : "105",
      "top" : "105",
      "type" : "elementwise",
      "name" : "105",
      "beta" : 0
    },
    {
      "bottom" : "83_1,105",
      "alpha" : 1,
      "operation" : 0,
      "weights" : {

      },
      "fused_relu" : 0,
      "debug_info" : "106",
      "top" : "106",
      "type" : "elementwise",
      "name" : "106",
      "beta" : 0
    },
    {
      "weights" : {

      },
      "debug_info" : "input.19",
      "top" : "input.19",
      "type" : "concat",
      "name" : "input.19",
      "bottom" : "83_0,83_1,106"
    },
    {
      "pad_r" : 0,
      "fused_relu" : 0,
      "fused_tanh" : 0,
      "debug_info" : "input.21",
      "pad_fill_mode" : 0,
      "pad_b" : 0,
      "pad_l" : 0,
      "top" : "input.21",
      "blob_weights" : 23,
      "K" : 48,
      "blob_biases" : 21,
      "name" : "input.21",
      "has_batch_norm" : 0,
      "type" : "convolution",
      "n_groups" : 1,
      "pad_t" : 0,
      "has_biases" : 1,
      "C" : 32,
      "bottom" : "input.19",
      "weights" : {

      },
      "Nx" : 1,
      "pad_mode" : 0,
      "pad_value" : 0,
      "Ny" : 1,
      "n_parallel" : 1
    },
    {
      "bottom" : "input.21",
      "weights" : {

      },
      "mode" : 3,
      "debug_info" : "input.23__silu_sigmoid__",
      "top" : "input.23__silu_sigmoid__",
      "type" : "activation",
      "name" : "input.23__silu_sigmoid__"
    },
    {
      "bottom" : "input.21,input.23__silu_sigmoid__",
      "alpha" : 1,
      "operation" : 1,
      "weights" : {

      },
      "fused_relu" : 0,
      "debug_info" : "input.23",
      "top" : "input.23",
      "type" : "elementwise",
      "name" : "input.23",
      "beta" : 0
    },
    {
      "pad_r" : 1,
      "fused_relu" : 0,
      "fused_tanh" : 0,
      "debug_info" : "input.25",
      "pad_fill_mode" : 0,
      "pad_b" : 1,
      "pad_l" : 1,
      "top" : "input.25",
      "blob_weights" : 27,
      "K" : 32,
      "blob_biases" : 25,
      "stride_x" : 2,
      "name" : "input.25",
      "has_batch_norm" : 0,
      "type" : "convolution",
      "n_groups" : 1,
      "pad_t" : 1,
      "stride_y" : 2,
      "has_biases" : 1,
      "C" : 64,
      "bottom" : "input.23",
      "weights" : {

      },
      "Nx" : 3,
      "pad_mode" : 0,
      "pad_value" : 0,
      "Ny" : 3,
      "n_parallel" : 1
    },
    {
      "bottom" : "input.25",
      "weights" : {

      },
      "mode" : 3,
      "debug_info" : "input.27__silu_sigmoid__",
      "top" : "input.27__silu_sigmoid__",
      "type" : "activation",
      "name" : "input.27__silu_sigmoid__"
    },
    {
      "bottom" : "input.25,input.27__silu_sigmoid__",
      "alpha" : 1,
      "operation" : 1,
      "weights" : {

      },
      "fused_relu" : 0,
      "debug_info" : "input.27",
      "top" : "input.27",
      "type" : "elementwise",
      "name" : "input.27",
      "beta" : 0
    },
    {
      "pad_r" : 0,
      "fused_relu" : 0,
      "fused_tanh" : 0,
      "debug_info" : "input.29",
      "pad_fill_mode" : 0,
      "pad_b" : 0,
      "pad_l" : 0,
      "top" : "input.29",
      "blob_weights" : 31,
      "K" : 64,
      "blob_biases" : 29,
      "name" : "input.29",
      "has_batch_norm" : 0,
      "type" : "convolution",
      "n_groups" : 1,
      "pad_t" : 0,
      "has_biases" : 1,
      "C" : 64,
      "bottom" : "input.27",
      "weights" : {

      },
      "Nx" : 1,
      "pad_mode" : 0,
      "pad_value" : 0,
      "Ny" : 1,
      "n_parallel" : 1
    },
    {
      "bottom" : "input.29",
      "weights" : {

      },
      "mode" : 3,
      "debug_info" : "151__silu_sigmoid__",
      "top" : "151__silu_sigmoid__",
      "type" : "activation",
      "name" : "151__silu_sigmoid__"
    },
    {
      "bottom" : "input.29,151__silu_sigmoid__",
      "alpha" : 1,
      "operation" : 1,
      "weights" : {

      },
      "fused_relu" : 0,
      "debug_info" : "151",
      "top" : "151",
      "type" : "elementwise",
      "name" : "151",
      "beta" : 0
    },
    {
      "begin_104" : 0,
      "begin_63" : 0,
      "begin_59" : 0,
      "begin_64" : 0,
      "begin_105" : 0,
      "begin_65" : 0,
      "begin_0" : 0,
      "begin_70" : 0,
      "begin_66" : 0,
      "begin_106" : 0,
      "begin_110" : 0,
      "begin_2" : 0,
      "begin_71" : 0,
      "begin_67" : 0,
      "begin_68" : 0,
      "begin_107" : 0,
      "begin_111" : 0,
      "begin_4" : 0,
      "begin_72" : 0,
      "begin_73" : 0,
      "begin_69" : 0,
      "begin_6" : 0,
      "begin_74" : 0,
      "begin_108" : 0,
      "type" : "split_nd",
      "begin_8" : 0,
      "begin_112" : 0,
      "begin_75" : 0,
      "begin_10" : 0,
      "begin_80" : 0,
      "begin_76" : 0,
      "begin_109" : 0,
      "begin_113" : 0,
      "begin_11" : 0,
      "nd_axis" : 1,
      "begin_81" : 0,
      "begin_77" : 0,
      "begin_114" : 0,
      "begin_12" : 0,
      "begin_78" : 0,
      "begin_82" : 0,
      "begin_13" : 0,
      "begin_83" : 0,
      "begin_79" : 0,
      "begin_115" : 0,
      "begin_14" : 0,
      "begin_84" : 0,
      "begin_15" : 0,
      "begin_85" : 0,
      "begin_116" : 0,
      "begin_120" : 0,
      "begin_20" : 0,
      "begin_86" : 0,
      "begin_16" : 0,
      "begin_90" : 0,
      "begin_21" : 0,
      "begin_91" : 0,
      "begin_87" : 0,
      "begin_17" : 0,
      "begin_117" : 0,
      "begin_121" : 0,
      "begin_18" : 0,
      "begin_92" : 0,
      "begin_88" : 0,
      "begin_22" : 0,
      "begin_23" : 0,
      "begin_89" : 0,
      "begin_19" : 0,
      "begin_93" : 0,
      "begin_118" : 0,
      "begin_122" : 0,
      "begin_24" : 0,
      "begin_94" : 0,
      "begin_25" : 0,
      "begin_95" : 0,
      "begin_119" : 0,
      "begin_123" : 0,
      "begin_30" : 0,
      "begin_26" : 0,
      "begin_96" : 0,
      "begin_124" : 0,
      "begin_31" : 0,
      "begin_97" : 0,
      "begin_27" : 0,
      "begin_28" : 0,
      "begin_98" : 0,
      "begin_32" : 0,
      "begin_125" : 0,
      "begin_33" : 0,
      "begin_29" : 0,
      "begin_99" : 0,
      "begin_1" : 0,
      "weights" : {

      },
      "begin_34" : 0,
      "bottom" : "151",
      "begin_3" : 0,
      "begin_126" : 0,
      "begin_35" : 0,
      "begin_5" : 0,
      "begin_36" : 0,
      "begin_40" : 0,
      "begin_127" : 0,
      "name" : "153",
      "begin_41" : 0,
      "begin_37" : 0,
      "begin_7" : 0,
      "begin_42" : 0,
      "begin_38" : 0,
      "begin_9" : 0,
      "begin_39" : 0,
      "begin_43" : 0,
      "begin_44" : 0,
      "begin_45" : 0,
      "begin_50" : 0,
      "begin_46" : 0,
      "begin_51" : 0,
      "begin_47" : 0,
      "begin_100" : 0,
      "begin_52" : 0,
      "debug_info" : "153",
      "begin_48" : 0,
      "top" : "153_0,153_1",
      "begin_101" : 0,
      "begin_53" : 0,
      "begin_49" : 0,
      "begin_54" : 0,
      "begin_55" : 0,
      "begin_102" : 0,
      "begin_60" : 0,
      "begin_56" : 0,
      "begin_103" : 0,
      "begin_57" : 0,
      "begin_61" : 0,
      "begin_62" : 0,
      "begin_58" : 0
    },
    {
      "pad_r" : 1,
      "fused_relu" : 0,
      "fused_tanh" : 0,
      "debug_info" : "input.33",
      "pad_fill_mode" : 0,
      "pad_b" : 1,
      "pad_l" : 1,
      "top" : "input.33",
      "blob_weights" : 35,
      "K" : 32,
      "blob_biases" : 33,
      "name" : "input.33",
      "has_batch_norm" : 0,
      "type" : "convolution",
      "n_groups" : 1,
      "pad_t" : 1,
      "has_biases" : 1,
      "C" : 32,
      "bottom" : "153_1",
      "weights" : {

      },
      "Nx" : 3,
      "pad_mode" : 0,
      "pad_value" : 0,
      "Ny" : 3,
      "n_parallel" : 1
    },
    {
      "bottom" : "input.33",
      "weights" : {

      },
      "mode" : 3,
      "debug_info" : "input.35__silu_sigmoid__",
      "top" : "input.35__silu_sigmoid__",
      "type" : "activation",
      "name" : "input.35__silu_sigmoid__"
    },
    {
      "bottom" : "input.33,input.35__silu_sigmoid__",
      "alpha" : 1,
      "operation" : 1,
      "weights" : {

      },
      "fused_relu" : 0,
      "debug_info" : "input.35",
      "top" : "input.35",
      "type" : "elementwise",
      "name" : "input.35",
      "beta" : 0
    },
    {
      "pad_r" : 1,
      "fused_relu" : 0,
      "fused_tanh" : 0,
      "debug_info" : "input.37",
      "pad_fill_mode" : 0,
      "pad_b" : 1,
      "pad_l" : 1,
      "top" : "input.37",
      "blob_weights" : 39,
      "K" : 32,
      "blob_biases" : 37,
      "name" : "input.37",
      "has_batch_norm" : 0,
      "type" : "convolution",
      "n_groups" : 1,
      "pad_t" : 1,
      "has_biases" : 1,
      "C" : 32,
      "bottom" : "input.35",
      "weights" : {

      },
      "Nx" : 3,
      "pad_mode" : 0,
      "pad_value" : 0,
      "Ny" : 3,
      "n_parallel" : 1
    },
    {
      "bottom" : "input.37",
      "weights" : {

      },
      "mode" : 3,
      "debug_info" : "175__silu_sigmoid__",
      "top" : "175__silu_sigmoid__",
      "type" : "activation",
      "name" : "175__silu_sigmoid__"
    },
    {
      "bottom" : "input.37,175__silu_sigmoid__",
      "alpha" : 1,
      "operation" : 1,
      "weights" : {

      },
      "fused_relu" : 0,
      "debug_info" : "175",
      "top" : "175",
      "type" : "elementwise",
      "name" : "175",
      "beta" : 0
    },
    {
      "bottom" : "153_1,175",
      "alpha" : 1,
      "operation" : 0,
      "weights" : {

      },
      "fused_relu" : 0,
      "debug_info" : "input.39",
      "top" : "input.39",
      "type" : "elementwise",
      "name" : "input.39",
      "beta" : 0
    },
    {
      "pad_r" : 1,
      "fused_relu" : 0,
      "fused_tanh" : 0,
      "debug_info" : "input.41",
      "pad_fill_mode" : 0,
      "pad_b" : 1,
      "pad_l" : 1,
      "top" : "input.41",
      "blob_weights" : 43,
      "K" : 32,
      "blob_biases" : 41,
      "name" : "input.41",
      "has_batch_norm" : 0,
      "type" : "convolution",
      "n_groups" : 1,
      "pad_t" : 1,
      "has_biases" : 1,
      "C" : 32,
      "bottom" : "input.39",
      "weights" : {

      },
      "Nx" : 3,
      "pad_mode" : 0,
      "pad_value" : 0,
      "Ny" : 3,
      "n_parallel" : 1
    },
    {
      "bottom" : "input.41",
      "weights" : {

      },
      "mode" : 3,
      "debug_info" : "input.43__silu_sigmoid__",
      "top" : "input.43__silu_sigmoid__",
      "type" : "activation",
      "name" : "input.43__silu_sigmoid__"
    },
    {
      "bottom" : "input.41,input.43__silu_sigmoid__",
      "alpha" : 1,
      "operation" : 1,
      "weights" : {

      },
      "fused_relu" : 0,
      "debug_info" : "input.43",
      "top" : "input.43",
      "type" : "elementwise",
      "name" : "input.43",
      "beta" : 0
    },
    {
      "pad_r" : 1,
      "fused_relu" : 0,
      "fused_tanh" : 0,
      "debug_info" : "input.45",
      "pad_fill_mode" : 0,
      "pad_b" : 1,
      "pad_l" : 1,
      "top" : "input.45",
      "blob_weights" : 47,
      "K" : 32,
      "blob_biases" : 45,
      "name" : "input.45",
      "has_batch_norm" : 0,
      "type" : "convolution",
      "n_groups" : 1,
      "pad_t" : 1,
      "has_biases" : 1,
      "C" : 32,
      "bottom" : "input.43",
      "weights" : {

      },
      "Nx" : 3,
      "pad_mode" : 0,
      "pad_value" : 0,
      "Ny" : 3,
      "n_parallel" : 1
    },
    {
      "bottom" : "input.45",
      "weights" : {

      },
      "mode" : 3,
      "debug_info" : "196__silu_sigmoid__",
      "top" : "196__silu_sigmoid__",
      "type" : "activation",
      "name" : "196__silu_sigmoid__"
    },
    {
      "bottom" : "input.45,196__silu_sigmoid__",
      "alpha" : 1,
      "operation" : 1,
      "weights" : {

      },
      "fused_relu" : 0,
      "debug_info" : "196",
      "top" : "196",
      "type" : "elementwise",
      "name" : "196",
      "beta" : 0
    },
    {
      "bottom" : "input.39,196",
      "alpha" : 1,
      "operation" : 0,
      "weights" : {

      },
      "fused_relu" : 0,
      "debug_info" : "197",
      "top" : "197",
      "type" : "elementwise",
      "name" : "197",
      "beta" : 0
    },
    {
      "weights" : {

      },
      "debug_info" : "input.47",
      "top" : "input.47",
      "type" : "concat",
      "name" : "input.47",
      "bottom" : "153_0,153_1,input.39,197"
    },
    {
      "pad_r" : 0,
      "fused_relu" : 0,
      "fused_tanh" : 0,
      "debug_info" : "input.49",
      "pad_fill_mode" : 0,
      "pad_b" : 0,
      "pad_l" : 0,
      "top" : "input.49",
      "blob_weights" : 51,
      "K" : 128,
      "blob_biases" : 49,
      "name" : "input.49",
      "has_batch_norm" : 0,
      "type" : "convolution",
      "n_groups" : 1,
      "pad_t" : 0,
      "has_biases" : 1,
      "C" : 64,
      "bottom" : "input.47",
      "weights" : {

      },
      "Nx" : 1,
      "pad_mode" : 0,
      "pad_value" : 0,
      "Ny" : 1,
      "n_parallel" : 1
    },
    {
      "bottom" : "input.49",
      "weights" : {

      },
      "mode" : 3,
      "debug_info" : "input.51__silu_sigmoid__",
      "top" : "input.51__silu_sigmoid__",
      "type" : "activation",
      "name" : "input.51__silu_sigmoid__"
    },
    {
      "bottom" : "input.49,input.51__silu_sigmoid__",
      "alpha" : 1,
      "operation" : 1,
      "weights" : {

      },
      "fused_relu" : 0,
      "debug_info" : "input.51",
      "top" : "input.51",
      "type" : "elementwise",
      "name" : "input.51",
      "beta" : 0
    },
    {
      "pad_r" : 1,
      "fused_relu" : 0,
      "fused_tanh" : 0,
      "debug_info" : "input.53",
      "pad_fill_mode" : 0,
      "pad_b" : 1,
      "pad_l" : 1,
      "top" : "input.53",
      "blob_weights" : 55,
      "K" : 64,
      "blob_biases" : 53,
      "stride_x" : 2,
      "name" : "input.53",
      "has_batch_norm" : 0,
      "type" : "convolution",
      "n_groups" : 1,
      "pad_t" : 1,
      "stride_y" : 2,
      "has_biases" : 1,
      "C" : 128,
      "bottom" : "input.51",
      "weights" : {

      },
      "Nx" : 3,
      "pad_mode" : 0,
      "pad_value" : 0,
      "Ny" : 3,
      "n_parallel" : 1
    },
    {
      "bottom" : "input.53",
      "weights" : {

      },
      "mode" : 3,
      "debug_info" : "input.55__silu_sigmoid__",
      "top" : "input.55__silu_sigmoid__",
      "type" : "activation",
      "name" : "input.55__silu_sigmoid__"
    },
    {
      "bottom" : "input.53,input.55__silu_sigmoid__",
      "alpha" : 1,
      "operation" : 1,
      "weights" : {

      },
      "fused_relu" : 0,
      "debug_info" : "input.55",
      "top" : "input.55",
      "type" : "elementwise",
      "name" : "input.55",
      "beta" : 0
    },
    {
      "pad_r" : 0,
      "fused_relu" : 0,
      "fused_tanh" : 0,
      "debug_info" : "input.57",
      "pad_fill_mode" : 0,
      "pad_b" : 0,
      "pad_l" : 0,
      "top" : "input.57",
      "blob_weights" : 59,
      "K" : 128,
      "blob_biases" : 57,
      "name" : "input.57",
      "has_batch_norm" : 0,
      "type" : "convolution",
      "n_groups" : 1,
      "pad_t" : 0,
      "has_biases" : 1,
      "C" : 128,
      "bottom" : "input.55",
      "weights" : {

      },
      "Nx" : 1,
      "pad_mode" : 0,
      "pad_value" : 0,
      "Ny" : 1,
      "n_parallel" : 1
    },
    {
      "bottom" : "input.57",
      "weights" : {

      },
      "mode" : 3,
      "debug_info" : "242__silu_sigmoid__",
      "top" : "242__silu_sigmoid__",
      "type" : "activation",
      "name" : "242__silu_sigmoid__"
    },
    {
      "bottom" : "input.57,242__silu_sigmoid__",
      "alpha" : 1,
      "operation" : 1,
      "weights" : {

      },
      "fused_relu" : 0,
      "debug_info" : "242",
      "top" : "242",
      "type" : "elementwise",
      "name" : "242",
      "beta" : 0
    },
    {
      "begin_104" : 0,
      "begin_63" : 0,
      "begin_59" : 0,
      "begin_64" : 0,
      "begin_105" : 0,
      "begin_65" : 0,
      "begin_0" : 0,
      "begin_70" : 0,
      "begin_66" : 0,
      "begin_106" : 0,
      "begin_110" : 0,
      "begin_2" : 0,
      "begin_71" : 0,
      "begin_67" : 0,
      "begin_68" : 0,
      "begin_107" : 0,
      "begin_111" : 0,
      "begin_4" : 0,
      "begin_72" : 0,
      "begin_73" : 0,
      "begin_69" : 0,
      "begin_6" : 0,
      "begin_74" : 0,
      "begin_108" : 0,
      "type" : "split_nd",
      "begin_8" : 0,
      "begin_112" : 0,
      "begin_75" : 0,
      "begin_10" : 0,
      "begin_80" : 0,
      "begin_76" : 0,
      "begin_109" : 0,
      "begin_113" : 0,
      "begin_11" : 0,
      "nd_axis" : 1,
      "begin_81" : 0,
      "begin_77" : 0,
      "begin_114" : 0,
      "begin_12" : 0,
      "begin_78" : 0,
      "begin_82" : 0,
      "begin_13" : 0,
      "begin_83" : 0,
      "begin_79" : 0,
      "begin_115" : 0,
      "begin_14" : 0,
      "begin_84" : 0,
      "begin_15" : 0,
      "begin_85" : 0,
      "begin_116" : 0,
      "begin_120" : 0,
      "begin_20" : 0,
      "begin_86" : 0,
      "begin_16" : 0,
      "begin_90" : 0,
      "begin_21" : 0,
      "begin_91" : 0,
      "begin_87" : 0,
      "begin_17" : 0,
      "begin_117" : 0,
      "begin_121" : 0,
      "begin_18" : 0,
      "begin_92" : 0,
      "begin_88" : 0,
      "begin_22" : 0,
      "begin_23" : 0,
      "begin_89" : 0,
      "begin_19" : 0,
      "begin_93" : 0,
      "begin_118" : 0,
      "begin_122" : 0,
      "begin_24" : 0,
      "begin_94" : 0,
      "begin_25" : 0,
      "begin_95" : 0,
      "begin_119" : 0,
      "begin_123" : 0,
      "begin_30" : 0,
      "begin_26" : 0,
      "begin_96" : 0,
      "begin_124" : 0,
      "begin_31" : 0,
      "begin_97" : 0,
      "begin_27" : 0,
      "begin_28" : 0,
      "begin_98" : 0,
      "begin_32" : 0,
      "begin_125" : 0,
      "begin_33" : 0,
      "begin_29" : 0,
      "begin_99" : 0,
      "begin_1" : 0,
      "weights" : {

      },
      "begin_34" : 0,
      "bottom" : "242",
      "begin_3" : 0,
      "begin_126" : 0,
      "begin_35" : 0,
      "begin_5" : 0,
      "begin_36" : 0,
      "begin_40" : 0,
      "begin_127" : 0,
      "name" : "244",
      "begin_41" : 0,
      "begin_37" : 0,
      "begin_7" : 0,
      "begin_42" : 0,
      "begin_38" : 0,
      "begin_9" : 0,
      "begin_39" : 0,
      "begin_43" : 0,
      "begin_44" : 0,
      "begin_45" : 0,
      "begin_50" : 0,
      "begin_46" : 0,
      "begin_51" : 0,
      "begin_47" : 0,
      "begin_100" : 0,
      "begin_52" : 0,
      "debug_info" : "244",
      "begin_48" : 0,
      "top" : "244_0,244_1",
      "begin_101" : 0,
      "begin_53" : 0,
      "begin_49" : 0,
      "begin_54" : 0,
      "begin_55" : 0,
      "begin_102" : 0,
      "begin_60" : 0,
      "begin_56" : 0,
      "begin_103" : 0,
      "begin_57" : 0,
      "begin_61" : 0,
      "begin_62" : 0,
      "begin_58" : 0
    },
    {
      "pad_r" : 1,
      "fused_relu" : 0,
      "fused_tanh" : 0,
      "debug_info" : "input.61",
      "pad_fill_mode" : 0,
      "pad_b" : 1,
      "pad_l" : 1,
      "top" : "input.61",
      "blob_weights" : 63,
      "K" : 64,
      "blob_biases" : 61,
      "name" : "input.61",
      "has_batch_norm" : 0,
      "type" : "convolution",
      "n_groups" : 1,
      "pad_t" : 1,
      "has_biases" : 1,
      "C" : 64,
      "bottom" : "244_1",
      "weights" : {

      },
      "Nx" : 3,
      "pad_mode" : 0,
      "pad_value" : 0,
      "Ny" : 3,
      "n_parallel" : 1
    },
    {
      "bottom" : "input.61",
      "weights" : {

      },
      "mode" : 3,
      "debug_info" : "input.63__silu_sigmoid__",
      "top" : "input.63__silu_sigmoid__",
      "type" : "activation",
      "name" : "input.63__silu_sigmoid__"
    },
    {
      "bottom" : "input.61,input.63__silu_sigmoid__",
      "alpha" : 1,
      "operation" : 1,
      "weights" : {

      },
      "fused_relu" : 0,
      "debug_info" : "input.63",
      "top" : "input.63",
      "type" : "elementwise",
      "name" : "input.63",
      "beta" : 0
    },
    {
      "pad_r" : 1,
      "fused_relu" : 0,
      "fused_tanh" : 0,
      "debug_info" : "input.65",
      "pad_fill_mode" : 0,
      "pad_b" : 1,
      "pad_l" : 1,
      "top" : "input.65",
      "blob_weights" : 67,
      "K" : 64,
      "blob_biases" : 65,
      "name" : "input.65",
      "has_batch_norm" : 0,
      "type" : "convolution",
      "n_groups" : 1,
      "pad_t" : 1,
      "has_biases" : 1,
      "C" : 64,
      "bottom" : "input.63",
      "weights" : {

      },
      "Nx" : 3,
      "pad_mode" : 0,
      "pad_value" : 0,
      "Ny" : 3,
      "n_parallel" : 1
    },
    {
      "bottom" : "input.65",
      "weights" : {

      },
      "mode" : 3,
      "debug_info" : "266__silu_sigmoid__",
      "top" : "266__silu_sigmoid__",
      "type" : "activation",
      "name" : "266__silu_sigmoid__"
    },
    {
      "bottom" : "input.65,266__silu_sigmoid__",
      "alpha" : 1,
      "operation" : 1,
      "weights" : {

      },
      "fused_relu" : 0,
      "debug_info" : "266",
      "top" : "266",
      "type" : "elementwise",
      "name" : "266",
      "beta" : 0
    },
    {
      "bottom" : "244_1,266",
      "alpha" : 1,
      "operation" : 0,
      "weights" : {

      },
      "fused_relu" : 0,
      "debug_info" : "input.67",
      "top" : "input.67",
      "type" : "elementwise",
      "name" : "input.67",
      "beta" : 0
    },
    {
      "pad_r" : 1,
      "fused_relu" : 0,
      "fused_tanh" : 0,
      "debug_info" : "input.69",
      "pad_fill_mode" : 0,
      "pad_b" : 1,
      "pad_l" : 1,
      "top" : "input.69",
      "blob_weights" : 71,
      "K" : 64,
      "blob_biases" : 69,
      "name" : "input.69",
      "has_batch_norm" : 0,
      "type" : "convolution",
      "n_groups" : 1,
      "pad_t" : 1,
      "has_biases" : 1,
      "C" : 64,
      "bottom" : "input.67",
      "weights" : {

      },
      "Nx" : 3,
      "pad_mode" : 0,
      "pad_value" : 0,
      "Ny" : 3,
      "n_parallel" : 1
    },
    {
      "bottom" : "input.69",
      "weights" : {

      },
      "mode" : 3,
      "debug_info" : "input.71__silu_sigmoid__",
      "top" : "input.71__silu_sigmoid__",
      "type" : "activation",
      "name" : "input.71__silu_sigmoid__"
    },
    {
      "bottom" : "input.69,input.71__silu_sigmoid__",
      "alpha" : 1,
      "operation" : 1,
      "weights" : {

      },
      "fused_relu" : 0,
      "debug_info" : "input.71",
      "top" : "input.71",
      "type" : "elementwise",
      "name" : "input.71",
      "beta" : 0
    },
    {
      "pad_r" : 1,
      "fused_relu" : 0,
      "fused_tanh" : 0,
      "debug_info" : "input.73",
      "pad_fill_mode" : 0,
      "pad_b" : 1,
      "pad_l" : 1,
      "top" : "input.73",
      "blob_weights" : 75,
      "K" : 64,
      "blob_biases" : 73,
      "name" : "input.73",
      "has_batch_norm" : 0,
      "type" : "convolution",
      "n_groups" : 1,
      "pad_t" : 1,
      "has_biases" : 1,
      "C" : 64,
      "bottom" : "input.71",
      "weights" : {

      },
      "Nx" : 3,
      "pad_mode" : 0,
      "pad_value" : 0,
      "Ny" : 3,
      "n_parallel" : 1
    },
    {
      "bottom" : "input.73",
      "weights" : {

      },
      "mode" : 3,
      "debug_info" : "287__silu_sigmoid__",
      "top" : "287__silu_sigmoid__",
      "type" : "activation",
      "name" : "287__silu_sigmoid__"
    },
    {
      "bottom" : "input.73,287__silu_sigmoid__",
      "alpha" : 1,
      "operation" : 1,
      "weights" : {

      },
      "fused_relu" : 0,
      "debug_info" : "287",
      "top" : "287",
      "type" : "elementwise",
      "name" : "287",
      "beta" : 0
    },
    {
      "bottom" : "input.67,287",
      "alpha" : 1,
      "operation" : 0,
      "weights" : {

      },
      "fused_relu" : 0,
      "debug_info" : "288",
      "top" : "288",
      "type" : "elementwise",
      "name" : "288",
      "beta" : 0
    },
    {
      "weights" : {

      },
      "debug_info" : "input.75",
      "top" : "input.75",
      "type" : "concat",
      "name" : "input.75",
      "bottom" : "244_0,244_1,input.67,288"
    },
    {
      "pad_r" : 0,
      "fused_relu" : 0,
      "fused_tanh" : 0,
      "debug_info" : "input.77",
      "pad_fill_mode" : 0,
      "pad_b" : 0,
      "pad_l" : 0,
      "top" : "input.77",
      "blob_weights" : 79,
      "K" : 256,
      "blob_biases" : 77,
      "name" : "input.77",
      "has_batch_norm" : 0,
      "type" : "convolution",
      "n_groups" : 1,
      "pad_t" : 0,
      "has_biases" : 1,
      "C" : 128,
      "bottom" : "input.75",
      "weights" : {

      },
      "Nx" : 1,
      "pad_mode" : 0,
      "pad_value" : 0,
      "Ny" : 1,
      "n_parallel" : 1
    },
    {
      "bottom" : "input.77",
      "weights" : {

      },
      "mode" : 3,
      "debug_info" : "input.79__silu_sigmoid__",
      "top" : "input.79__silu_sigmoid__",
      "type" : "activation",
      "name" : "input.79__silu_sigmoid__"
    },
    {
      "bottom" : "input.77,input.79__silu_sigmoid__",
      "alpha" : 1,
      "operation" : 1,
      "weights" : {

      },
      "fused_relu" : 0,
      "debug_info" : "input.79",
      "top" : "input.79",
      "type" : "elementwise",
      "name" : "input.79",
      "beta" : 0
    },
    {
      "pad_r" : 1,
      "fused_relu" : 0,
      "fused_tanh" : 0,
      "debug_info" : "input.81",
      "pad_fill_mode" : 0,
      "pad_b" : 1,
      "pad_l" : 1,
      "top" : "input.81",
      "blob_weights" : 83,
      "K" : 128,
      "blob_biases" : 81,
      "stride_x" : 2,
      "name" : "input.81",
      "has_batch_norm" : 0,
      "type" : "convolution",
      "n_groups" : 1,
      "pad_t" : 1,
      "stride_y" : 2,
      "has_biases" : 1,
      "C" : 256,
      "bottom" : "input.79",
      "weights" : {

      },
      "Nx" : 3,
      "pad_mode" : 0,
      "pad_value" : 0,
      "Ny" : 3,
      "n_parallel" : 1
    },
    {
      "bottom" : "input.81",
      "weights" : {

      },
      "mode" : 3,
      "debug_info" : "input.83__silu_sigmoid__",
      "top" : "input.83__silu_sigmoid__",
      "type" : "activation",
      "name" : "input.83__silu_sigmoid__"
    },
    {
      "bottom" : "input.81,input.83__silu_sigmoid__",
      "alpha" : 1,
      "operation" : 1,
      "weights" : {

      },
      "fused_relu" : 0,
      "debug_info" : "input.83",
      "top" : "input.83",
      "type" : "elementwise",
      "name" : "input.83",
      "beta" : 0
    },
    {
      "pad_r" : 0,
      "fused_relu" : 0,
      "fused_tanh" : 0,
      "debug_info" : "input.85",
      "pad_fill_mode" : 0,
      "pad_b" : 0,
      "pad_l" : 0,
      "top" : "input.85",
      "blob_weights" : 87,
      "K" : 256,
      "blob_biases" : 85,
      "name" : "input.85",
      "has_batch_norm" : 0,
      "type" : "convolution",
      "n_groups" : 1,
      "pad_t" : 0,
      "has_biases" : 1,
      "C" : 256,
      "bottom" : "input.83",
      "weights" : {

      },
      "Nx" : 1,
      "pad_mode" : 0,
      "pad_value" : 0,
      "Ny" : 1,
      "n_parallel" : 1
    },
    {
      "bottom" : "input.85",
      "weights" : {

      },
      "mode" : 3,
      "debug_info" : "331__silu_sigmoid__",
      "top" : "331__silu_sigmoid__",
      "type" : "activation",
      "name" : "331__silu_sigmoid__"
    },
    {
      "bottom" : "input.85,331__silu_sigmoid__",
      "alpha" : 1,
      "operation" : 1,
      "weights" : {

      },
      "fused_relu" : 0,
      "debug_info" : "331",
      "top" : "331",
      "type" : "elementwise",
      "name" : "331",
      "beta" : 0
    },
    {
      "begin_104" : 0,
      "begin_63" : 0,
      "begin_59" : 0,
      "begin_64" : 0,
      "begin_105" : 0,
      "begin_65" : 0,
      "begin_0" : 0,
      "begin_70" : 0,
      "begin_66" : 0,
      "begin_106" : 0,
      "begin_110" : 0,
      "begin_2" : 0,
      "begin_71" : 0,
      "begin_67" : 0,
      "begin_68" : 0,
      "begin_107" : 0,
      "begin_111" : 0,
      "begin_4" : 0,
      "begin_72" : 0,
      "begin_73" : 0,
      "begin_69" : 0,
      "begin_6" : 0,
      "begin_74" : 0,
      "begin_108" : 0,
      "type" : "split_nd",
      "begin_8" : 0,
      "begin_112" : 0,
      "begin_75" : 0,
      "begin_10" : 0,
      "begin_80" : 0,
      "begin_76" : 0,
      "begin_109" : 0,
      "begin_113" : 0,
      "begin_11" : 0,
      "nd_axis" : 1,
      "begin_81" : 0,
      "begin_77" : 0,
      "begin_114" : 0,
      "begin_12" : 0,
      "begin_78" : 0,
      "begin_82" : 0,
      "begin_13" : 0,
      "begin_83" : 0,
      "begin_79" : 0,
      "begin_115" : 0,
      "begin_14" : 0,
      "begin_84" : 0,
      "begin_15" : 0,
      "begin_85" : 0,
      "begin_116" : 0,
      "begin_120" : 0,
      "begin_20" : 0,
      "begin_86" : 0,
      "begin_16" : 0,
      "begin_90" : 0,
      "begin_21" : 0,
      "begin_91" : 0,
      "begin_87" : 0,
      "begin_17" : 0,
      "begin_117" : 0,
      "begin_121" : 0,
      "begin_18" : 0,
      "begin_92" : 0,
      "begin_88" : 0,
      "begin_22" : 0,
      "begin_23" : 0,
      "begin_89" : 0,
      "begin_19" : 0,
      "begin_93" : 0,
      "begin_118" : 0,
      "begin_122" : 0,
      "begin_24" : 0,
      "begin_94" : 0,
      "begin_25" : 0,
      "begin_95" : 0,
      "begin_119" : 0,
      "begin_123" : 0,
      "begin_30" : 0,
      "begin_26" : 0,
      "begin_96" : 0,
      "begin_124" : 0,
      "begin_31" : 0,
      "begin_97" : 0,
      "begin_27" : 0,
      "begin_28" : 0,
      "begin_98" : 0,
      "begin_32" : 0,
      "begin_125" : 0,
      "begin_33" : 0,
      "begin_29" : 0,
      "begin_99" : 0,
      "begin_1" : 0,
      "weights" : {

      },
      "begin_34" : 0,
      "bottom" : "331",
      "begin_3" : 0,
      "begin_126" : 0,
      "begin_35" : 0,
      "begin_5" : 0,
      "begin_36" : 0,
      "begin_40" : 0,
      "begin_127" : 0,
      "name" : "333",
      "begin_41" : 0,
      "begin_37" : 0,
      "begin_7" : 0,
      "begin_42" : 0,
      "begin_38" : 0,
      "begin_9" : 0,
      "begin_39" : 0,
      "begin_43" : 0,
      "begin_44" : 0,
      "begin_45" : 0,
      "begin_50" : 0,
      "begin_46" : 0,
      "begin_51" : 0,
      "begin_47" : 0,
      "begin_100" : 0,
      "begin_52" : 0,
      "debug_info" : "333",
      "begin_48" : 0,
      "top" : "333_0,333_1",
      "begin_101" : 0,
      "begin_53" : 0,
      "begin_49" : 0,
      "begin_54" : 0,
      "begin_55" : 0,
      "begin_102" : 0,
      "begin_60" : 0,
      "begin_56" : 0,
      "begin_103" : 0,
      "begin_57" : 0,
      "begin_61" : 0,
      "begin_62" : 0,
      "begin_58" : 0
    },
    {
      "pad_r" : 1,
      "fused_relu" : 0,
      "fused_tanh" : 0,
      "debug_info" : "input.89",
      "pad_fill_mode" : 0,
      "pad_b" : 1,
      "pad_l" : 1,
      "top" : "input.89",
      "blob_weights" : 91,
      "K" : 128,
      "blob_biases" : 89,
      "name" : "input.89",
      "has_batch_norm" : 0,
      "type" : "convolution",
      "n_groups" : 1,
      "pad_t" : 1,
      "has_biases" : 1,
      "C" : 128,
      "bottom" : "333_1",
      "weights" : {

      },
      "Nx" : 3,
      "pad_mode" : 0,
      "pad_value" : 0,
      "Ny" : 3,
      "n_parallel" : 1
    },
    {
      "bottom" : "input.89",
      "weights" : {

      },
      "mode" : 3,
      "debug_info" : "input.91__silu_sigmoid__",
      "top" : "input.91__silu_sigmoid__",
      "type" : "activation",
      "name" : "input.91__silu_sigmoid__"
    },
    {
      "bottom" : "input.89,input.91__silu_sigmoid__",
      "alpha" : 1,
      "operation" : 1,
      "weights" : {

      },
      "fused_relu" : 0,
      "debug_info" : "input.91",
      "top" : "input.91",
      "type" : "elementwise",
      "name" : "input.91",
      "beta" : 0
    },
    {
      "pad_r" : 1,
      "fused_relu" : 0,
      "fused_tanh" : 0,
      "debug_info" : "input.93",
      "pad_fill_mode" : 0,
      "pad_b" : 1,
      "pad_l" : 1,
      "top" : "input.93",
      "blob_weights" : 95,
      "K" : 128,
      "blob_biases" : 93,
      "name" : "input.93",
      "has_batch_norm" : 0,
      "type" : "convolution",
      "n_groups" : 1,
      "pad_t" : 1,
      "has_biases" : 1,
      "C" : 128,
      "bottom" : "input.91",
      "weights" : {

      },
      "Nx" : 3,
      "pad_mode" : 0,
      "pad_value" : 0,
      "Ny" : 3,
      "n_parallel" : 1
    },
    {
      "bottom" : "input.93",
      "weights" : {

      },
      "mode" : 3,
      "debug_info" : "355__silu_sigmoid__",
      "top" : "355__silu_sigmoid__",
      "type" : "activation",
      "name" : "355__silu_sigmoid__"
    },
    {
      "bottom" : "input.93,355__silu_sigmoid__",
      "alpha" : 1,
      "operation" : 1,
      "weights" : {

      },
      "fused_relu" : 0,
      "debug_info" : "355",
      "top" : "355",
      "type" : "elementwise",
      "name" : "355",
      "beta" : 0
    },
    {
      "bottom" : "333_1,355",
      "alpha" : 1,
      "operation" : 0,
      "weights" : {

      },
      "fused_relu" : 0,
      "debug_info" : "356",
      "top" : "356",
      "type" : "elementwise",
      "name" : "356",
      "beta" : 0
    },
    {
      "weights" : {

      },
      "debug_info" : "input.95",
      "top" : "input.95",
      "type" : "concat",
      "name" : "input.95",
      "bottom" : "333_0,333_1,356"
    },
    {
      "pad_r" : 0,
      "fused_relu" : 0,
      "fused_tanh" : 0,
      "debug_info" : "input.97",
      "pad_fill_mode" : 0,
      "pad_b" : 0,
      "pad_l" : 0,
      "top" : "input.97",
      "blob_weights" : 99,
      "K" : 384,
      "blob_biases" : 97,
      "name" : "input.97",
      "has_batch_norm" : 0,
      "type" : "convolution",
      "n_groups" : 1,
      "pad_t" : 0,
      "has_biases" : 1,
      "C" : 256,
      "bottom" : "input.95",
      "weights" : {

      },
      "Nx" : 1,
      "pad_mode" : 0,
      "pad_value" : 0,
      "Ny" : 1,
      "n_parallel" : 1
    },
    {
      "bottom" : "input.97",
      "weights" : {

      },
      "mode" : 3,
      "debug_info" : "input.99__silu_sigmoid__",
      "top" : "input.99__silu_sigmoid__",
      "type" : "activation",
      "name" : "input.99__silu_sigmoid__"
    },
    {
      "bottom" : "input.97,input.99__silu_sigmoid__",
      "alpha" : 1,
      "operation" : 1,
      "weights" : {

      },
      "fused_relu" : 0,
      "debug_info" : "input.99",
      "top" : "input.99",
      "type" : "elementwise",
      "name" : "input.99",
      "beta" : 0
    },
    {
      "pad_r" : 0,
      "fused_relu" : 0,
      "fused_tanh" : 0,
      "debug_info" : "input.101",
      "pad_fill_mode" : 0,
      "pad_b" : 0,
      "pad_l" : 0,
      "top" : "input.101",
      "blob_weights" : 103,
      "K" : 256,
      "blob_biases" : 101,
      "name" : "input.101",
      "has_batch_norm" : 0,
      "type" : "convolution",
      "n_groups" : 1,
      "pad_t" : 0,
      "has_biases" : 1,
      "C" : 128,
      "bottom" : "input.99",
      "weights" : {

      },
      "Nx" : 1,
      "pad_mode" : 0,
      "pad_value" : 0,
      "Ny" : 1,
      "n_parallel" : 1
    },
    {
      "bottom" : "input.101",
      "weights" : {

      },
      "mode" : 3,
      "debug_info" : "input.103__silu_sigmoid__",
      "top" : "input.103__silu_sigmoid__",
      "type" : "activation",
      "name" : "input.103__silu_sigmoid__"
    },
    {
      "bottom" : "input.101,input.103__silu_sigmoid__",
      "alpha" : 1,
      "operation" : 1,
      "weights" : {

      },
      "fused_relu" : 0,
      "debug_info" : "input.103",
      "top" : "input.103",
      "type" : "elementwise",
      "name" : "input.103",
      "beta" : 0
    },
    {
      "pad_r" : 2,
      "debug_info" : "input.105",
      "pad_fill_mode" : 0,
      "pad_b" : 2,
      "pad_l" : 2,
      "size_x" : 5,
      "top" : "input.105",
      "top_shape_style" : 0,
      "stride_x" : 1,
      "avg_or_max" : 1,
      "average_count_exclude_padding" : 1,
      "type" : "pool",
      "name" : "input.105",
      "pad_t" : 2,
      "stride_y" : 1,
      "bottom" : "input.103",
      "weights" : {

      },
      "pad_mode" : 0,
      "size_y" : 5,
      "pad_value" : 0
    },
    {
      "pad_r" : 2,
      "debug_info" : "input.107",
      "pad_fill_mode" : 0,
      "pad_b" : 2,
      "pad_l" : 2,
      "size_x" : 5,
      "top" : "input.107",
      "top_shape_style" : 0,
      "stride_x" : 1,
      "avg_or_max" : 1,
      "average_count_exclude_padding" : 1,
      "type" : "pool",
      "name" : "input.107",
      "pad_t" : 2,
      "stride_y" : 1,
      "bottom" : "input.105",
      "weights" : {

      },
      "pad_mode" : 0,
      "size_y" : 5,
      "pad_value" : 0
    },
    {
      "pad_r" : 2,
      "debug_info" : "399",
      "pad_fill_mode" : 0,
      "pad_b" : 2,
      "pad_l" : 2,
      "size_x" : 5,
      "top" : "399",
      "top_shape_style" : 0,
      "stride_x" : 1,
      "avg_or_max" : 1,
      "average_count_exclude_padding" : 1,
      "type" : "pool",
      "name" : "399",
      "pad_t" : 2,
      "stride_y" : 1,
      "bottom" : "input.107",
      "weights" : {

      },
      "pad_mode" : 0,
      "size_y" : 5,
      "pad_value" : 0
    },
    {
      "weights" : {

      },
      "debug_info" : "input.109",
      "top" : "input.109",
      "type" : "concat",
      "name" : "input.109",
      "bottom" : "input.103,input.105,input.107,399"
    },
    {
      "pad_r" : 0,
      "fused_relu" : 0,
      "fused_tanh" : 0,
      "debug_info" : "input.111",
      "pad_fill_mode" : 0,
      "pad_b" : 0,
      "pad_l" : 0,
      "top" : "input.111",
      "blob_weights" : 107,
      "K" : 512,
      "blob_biases" : 105,
      "name" : "input.111",
      "has_batch_norm" : 0,
      "type" : "convolution",
      "n_groups" : 1,
      "pad_t" : 0,
      "has_biases" : 1,
      "C" : 256,
      "bottom" : "input.109",
      "weights" : {

      },
      "Nx" : 1,
      "pad_mode" : 0,
      "pad_value" : 0,
      "Ny" : 1,
      "n_parallel" : 1
    },
    {
      "bottom" : "input.111",
      "weights" : {

      },
      "mode" : 3,
      "debug_info" : "input.113__silu_sigmoid__",
      "top" : "input.113__silu_sigmoid__",
      "type" : "activation",
      "name" : "input.113__silu_sigmoid__"
    },
    {
      "bottom" : "input.111,input.113__silu_sigmoid__",
      "alpha" : 1,
      "operation" : 1,
      "weights" : {

      },
      "fused_relu" : 0,
      "debug_info" : "input.113",
      "top" : "input.113",
      "type" : "elementwise",
      "name" : "input.113",
      "beta" : 0
    },
    {
      "top" : "414",
      "use_fractional_scale_factors" : false,
      "weights" : {

      },
      "fractional_scaling_factor_y" : 1,
      "type" : "upsample",
      "scaling_factor_x" : 2,
      "mode" : 0,
      "align_corners" : 0,
      "bottom" : "input.113",
      "debug_info" : "414",
      "fractional_scaling_factor_x" : 1,
      "is_legacy_mode" : 1,
      "name" : "414",
      "scaling_factor_y" : 2
    },
    {
      "weights" : {

      },
      "debug_info" : "input.115",
      "top" : "input.115",
      "type" : "concat",
      "name" : "input.115",
      "bottom" : "414,input.79"
    },
    {
      "pad_r" : 0,
      "fused_relu" : 0,
      "fused_tanh" : 0,
      "debug_info" : "input.117",
      "pad_fill_mode" : 0,
      "pad_b" : 0,
      "pad_l" : 0,
      "top" : "input.117",
      "blob_weights" : 111,
      "K" : 384,
      "blob_biases" : 109,
      "name" : "input.117",
      "has_batch_norm" : 0,
      "type" : "convolution",
      "n_groups" : 1,
      "pad_t" : 0,
      "has_biases" : 1,
      "C" : 128,
      "bottom" : "input.115",
      "weights" : {

      },
      "Nx" : 1,
      "pad_mode" : 0,
      "pad_value" : 0,
      "Ny" : 1,
      "n_parallel" : 1
    },
    {
      "bottom" : "input.117",
      "weights" : {

      },
      "mode" : 3,
      "debug_info" : "435__silu_sigmoid__",
      "top" : "435__silu_sigmoid__",
      "type" : "activation",
      "name" : "435__silu_sigmoid__"
    },
    {
      "bottom" : "input.117,435__silu_sigmoid__",
      "alpha" : 1,
      "operation" : 1,
      "weights" : {

      },
      "fused_relu" : 0,
      "debug_info" : "435",
      "top" : "435",
      "type" : "elementwise",
      "name" : "435",
      "beta" : 0
    },
    {
      "begin_104" : 0,
      "begin_63" : 0,
      "begin_59" : 0,
      "begin_64" : 0,
      "begin_105" : 0,
      "begin_65" : 0,
      "begin_0" : 0,
      "begin_70" : 0,
      "begin_66" : 0,
      "begin_106" : 0,
      "begin_110" : 0,
      "begin_2" : 0,
      "begin_71" : 0,
      "begin_67" : 0,
      "begin_68" : 0,
      "begin_107" : 0,
      "begin_111" : 0,
      "begin_4" : 0,
      "begin_72" : 0,
      "begin_73" : 0,
      "begin_69" : 0,
      "begin_6" : 0,
      "begin_74" : 0,
      "begin_108" : 0,
      "type" : "split_nd",
      "begin_8" : 0,
      "begin_112" : 0,
      "begin_75" : 0,
      "begin_10" : 0,
      "begin_80" : 0,
      "begin_76" : 0,
      "begin_109" : 0,
      "begin_113" : 0,
      "begin_11" : 0,
      "nd_axis" : 1,
      "begin_81" : 0,
      "begin_77" : 0,
      "begin_114" : 0,
      "begin_12" : 0,
      "begin_78" : 0,
      "begin_82" : 0,
      "begin_13" : 0,
      "begin_83" : 0,
      "begin_79" : 0,
      "begin_115" : 0,
      "begin_14" : 0,
      "begin_84" : 0,
      "begin_15" : 0,
      "begin_85" : 0,
      "begin_116" : 0,
      "begin_120" : 0,
      "begin_20" : 0,
      "begin_86" : 0,
      "begin_16" : 0,
      "begin_90" : 0,
      "begin_21" : 0,
      "begin_91" : 0,
      "begin_87" : 0,
      "begin_17" : 0,
      "begin_117" : 0,
      "begin_121" : 0,
      "begin_18" : 0,
      "begin_92" : 0,
      "begin_88" : 0,
      "begin_22" : 0,
      "begin_23" : 0,
      "begin_89" : 0,
      "begin_19" : 0,
      "begin_93" : 0,
      "begin_118" : 0,
      "begin_122" : 0,
      "begin_24" : 0,
      "begin_94" : 0,
      "begin_25" : 0,
      "begin_95" : 0,
      "begin_119" : 0,
      "begin_123" : 0,
      "begin_30" : 0,
      "begin_26" : 0,
      "begin_96" : 0,
      "begin_124" : 0,
      "begin_31" : 0,
      "begin_97" : 0,
      "begin_27" : 0,
      "begin_28" : 0,
      "begin_98" : 0,
      "begin_32" : 0,
      "begin_125" : 0,
      "begin_33" : 0,
      "begin_29" : 0,
      "begin_99" : 0,
      "begin_1" : 0,
      "weights" : {

      },
      "begin_34" : 0,
      "bottom" : "435",
      "begin_3" : 0,
      "begin_126" : 0,
      "begin_35" : 0,
      "begin_5" : 0,
      "begin_36" : 0,
      "begin_40" : 0,
      "begin_127" : 0,
      "name" : "437",
      "begin_41" : 0,
      "begin_37" : 0,
      "begin_7" : 0,
      "begin_42" : 0,
      "begin_38" : 0,
      "begin_9" : 0,
      "begin_39" : 0,
      "begin_43" : 0,
      "begin_44" : 0,
      "begin_45" : 0,
      "begin_50" : 0,
      "begin_46" : 0,
      "begin_51" : 0,
      "begin_47" : 0,
      "begin_100" : 0,
      "begin_52" : 0,
      "debug_info" : "437",
      "begin_48" : 0,
      "top" : "437_0,437_1",
      "begin_101" : 0,
      "begin_53" : 0,
      "begin_49" : 0,
      "begin_54" : 0,
      "begin_55" : 0,
      "begin_102" : 0,
      "begin_60" : 0,
      "begin_56" : 0,
      "begin_103" : 0,
      "begin_57" : 0,
      "begin_61" : 0,
      "begin_62" : 0,
      "begin_58" : 0
    },
    {
      "pad_r" : 1,
      "fused_relu" : 0,
      "fused_tanh" : 0,
      "debug_info" : "input.121",
      "pad_fill_mode" : 0,
      "pad_b" : 1,
      "pad_l" : 1,
      "top" : "input.121",
      "blob_weights" : 115,
      "K" : 64,
      "blob_biases" : 113,
      "name" : "input.121",
      "has_batch_norm" : 0,
      "type" : "convolution",
      "n_groups" : 1,
      "pad_t" : 1,
      "has_biases" : 1,
      "C" : 64,
      "bottom" : "437_1",
      "weights" : {

      },
      "Nx" : 3,
      "pad_mode" : 0,
      "pad_value" : 0,
      "Ny" : 3,
      "n_parallel" : 1
    },
    {
      "bottom" : "input.121",
      "weights" : {

      },
      "mode" : 3,
      "debug_info" : "input.123__silu_sigmoid__",
      "top" : "input.123__silu_sigmoid__",
      "type" : "activation",
      "name" : "input.123__silu_sigmoid__"
    },
    {
      "bottom" : "input.121,input.123__silu_sigmoid__",
      "alpha" : 1,
      "operation" : 1,
      "weights" : {

      },
      "fused_relu" : 0,
      "debug_info" : "input.123",
      "top" : "input.123",
      "type" : "elementwise",
      "name" : "input.123",
      "beta" : 0
    },
    {
      "pad_r" : 1,
      "fused_relu" : 0,
      "fused_tanh" : 0,
      "debug_info" : "input.125",
      "pad_fill_mode" : 0,
      "pad_b" : 1,
      "pad_l" : 1,
      "top" : "input.125",
      "blob_weights" : 119,
      "K" : 64,
      "blob_biases" : 117,
      "name" : "input.125",
      "has_batch_norm" : 0,
      "type" : "convolution",
      "n_groups" : 1,
      "pad_t" : 1,
      "has_biases" : 1,
      "C" : 64,
      "bottom" : "input.123",
      "weights" : {

      },
      "Nx" : 3,
      "pad_mode" : 0,
      "pad_value" : 0,
      "Ny" : 3,
      "n_parallel" : 1
    },
    {
      "bottom" : "input.125",
      "weights" : {

      },
      "mode" : 3,
      "debug_info" : "459__silu_sigmoid__",
      "top" : "459__silu_sigmoid__",
      "type" : "activation",
      "name" : "459__silu_sigmoid__"
    },
    {
      "bottom" : "input.125,459__silu_sigmoid__",
      "alpha" : 1,
      "operation" : 1,
      "weights" : {

      },
      "fused_relu" : 0,
      "debug_info" : "459",
      "top" : "459",
      "type" : "elementwise",
      "name" : "459",
      "beta" : 0
    },
    {
      "weights" : {

      },
      "debug_info" : "input.127",
      "top" : "input.127",
      "type" : "concat",
      "name" : "input.127",
      "bottom" : "437_0,437_1,459"
    },
    {
      "pad_r" : 0,
      "fused_relu" : 0,
      "fused_tanh" : 0,
      "debug_info" : "input.129",
      "pad_fill_mode" : 0,
      "pad_b" : 0,
      "pad_l" : 0,
      "top" : "input.129",
      "blob_weights" : 123,
      "K" : 192,
      "blob_biases" : 121,
      "name" : "input.129",
      "has_batch_norm" : 0,
      "type" : "convolution",
      "n_groups" : 1,
      "pad_t" : 0,
      "has_biases" : 1,
      "C" : 128,
      "bottom" : "input.127",
      "weights" : {

      },
      "Nx" : 1,
      "pad_mode" : 0,
      "pad_value" : 0,
      "Ny" : 1,
      "n_parallel" : 1
    },
    {
      "bottom" : "input.129",
      "weights" : {

      },
      "mode" : 3,
      "debug_info" : "input.131__silu_sigmoid__",
      "top" : "input.131__silu_sigmoid__",
      "type" : "activation",
      "name" : "input.131__silu_sigmoid__"
    },
    {
      "bottom" : "input.129,input.131__silu_sigmoid__",
      "alpha" : 1,
      "operation" : 1,
      "weights" : {

      },
      "fused_relu" : 0,
      "debug_info" : "input.131",
      "top" : "input.131",
      "type" : "elementwise",
      "name" : "input.131",
      "beta" : 0
    },
    {
      "top" : "474",
      "use_fractional_scale_factors" : false,
      "weights" : {

      },
      "fractional_scaling_factor_y" : 1,
      "type" : "upsample",
      "scaling_factor_x" : 2,
      "mode" : 0,
      "align_corners" : 0,
      "bottom" : "input.131",
      "debug_info" : "474",
      "fractional_scaling_factor_x" : 1,
      "is_legacy_mode" : 1,
      "name" : "474",
      "scaling_factor_y" : 2
    },
    {
      "weights" : {

      },
      "debug_info" : "input.133",
      "top" : "input.133",
      "type" : "concat",
      "name" : "input.133",
      "bottom" : "474,input.51"
    },
    {
      "pad_r" : 0,
      "fused_relu" : 0,
      "fused_tanh" : 0,
      "debug_info" : "input.135",
      "pad_fill_mode" : 0,
      "pad_b" : 0,
      "pad_l" : 0,
      "top" : "input.135",
      "blob_weights" : 127,
      "K" : 192,
      "blob_biases" : 125,
      "name" : "input.135",
      "has_batch_norm" : 0,
      "type" : "convolution",
      "n_groups" : 1,
      "pad_t" : 0,
      "has_biases" : 1,
      "C" : 64,
      "bottom" : "input.133",
      "weights" : {

      },
      "Nx" : 1,
      "pad_mode" : 0,
      "pad_value" : 0,
      "Ny" : 1,
      "n_parallel" : 1
    },
    {
      "bottom" : "input.135",
      "weights" : {

      },
      "mode" : 3,
      "debug_info" : "495__silu_sigmoid__",
      "top" : "495__silu_sigmoid__",
      "type" : "activation",
      "name" : "495__silu_sigmoid__"
    },
    {
      "bottom" : "input.135,495__silu_sigmoid__",
      "alpha" : 1,
      "operation" : 1,
      "weights" : {

      },
      "fused_relu" : 0,
      "debug_info" : "495",
      "top" : "495",
      "type" : "elementwise",
      "name" : "495",
      "beta" : 0
    },
    {
      "begin_104" : 0,
      "begin_63" : 0,
      "begin_59" : 0,
      "begin_64" : 0,
      "begin_105" : 0,
      "begin_65" : 0,
      "begin_0" : 0,
      "begin_70" : 0,
      "begin_66" : 0,
      "begin_106" : 0,
      "begin_110" : 0,
      "begin_2" : 0,
      "begin_71" : 0,
      "begin_67" : 0,
      "begin_68" : 0,
      "begin_107" : 0,
      "begin_111" : 0,
      "begin_4" : 0,
      "begin_72" : 0,
      "begin_73" : 0,
      "begin_69" : 0,
      "begin_6" : 0,
      "begin_74" : 0,
      "begin_108" : 0,
      "type" : "split_nd",
      "begin_8" : 0,
      "begin_112" : 0,
      "begin_75" : 0,
      "begin_10" : 0,
      "begin_80" : 0,
      "begin_76" : 0,
      "begin_109" : 0,
      "begin_113" : 0,
      "begin_11" : 0,
      "nd_axis" : 1,
      "begin_81" : 0,
      "begin_77" : 0,
      "begin_114" : 0,
      "begin_12" : 0,
      "begin_78" : 0,
      "begin_82" : 0,
      "begin_13" : 0,
      "begin_83" : 0,
      "begin_79" : 0,
      "begin_115" : 0,
      "begin_14" : 0,
      "begin_84" : 0,
      "begin_15" : 0,
      "begin_85" : 0,
      "begin_116" : 0,
      "begin_120" : 0,
      "begin_20" : 0,
      "begin_86" : 0,
      "begin_16" : 0,
      "begin_90" : 0,
      "begin_21" : 0,
      "begin_91" : 0,
      "begin_87" : 0,
      "begin_17" : 0,
      "begin_117" : 0,
      "begin_121" : 0,
      "begin_18" : 0,
      "begin_92" : 0,
      "begin_88" : 0,
      "begin_22" : 0,
      "begin_23" : 0,
      "begin_89" : 0,
      "begin_19" : 0,
      "begin_93" : 0,
      "begin_118" : 0,
      "begin_122" : 0,
      "begin_24" : 0,
      "begin_94" : 0,
      "begin_25" : 0,
      "begin_95" : 0,
      "begin_119" : 0,
      "begin_123" : 0,
      "begin_30" : 0,
      "begin_26" : 0,
      "begin_96" : 0,
      "begin_124" : 0,
      "begin_31" : 0,
      "begin_97" : 0,
      "begin_27" : 0,
      "begin_28" : 0,
      "begin_98" : 0,
      "begin_32" : 0,
      "begin_125" : 0,
      "begin_33" : 0,
      "begin_29" : 0,
      "begin_99" : 0,
      "begin_1" : 0,
      "weights" : {

      },
      "begin_34" : 0,
      "bottom" : "495",
      "begin_3" : 0,
      "begin_126" : 0,
      "begin_35" : 0,
      "begin_5" : 0,
      "begin_36" : 0,
      "begin_40" : 0,
      "begin_127" : 0,
      "name" : "497",
      "begin_41" : 0,
      "begin_37" : 0,
      "begin_7" : 0,
      "begin_42" : 0,
      "begin_38" : 0,
      "begin_9" : 0,
      "begin_39" : 0,
      "begin_43" : 0,
      "begin_44" : 0,
      "begin_45" : 0,
      "begin_50" : 0,
      "begin_46" : 0,
      "begin_51" : 0,
      "begin_47" : 0,
      "begin_100" : 0,
      "begin_52" : 0,
      "debug_info" : "497",
      "begin_48" : 0,
      "top" : "497_0,497_1",
      "begin_101" : 0,
      "begin_53" : 0,
      "begin_49" : 0,
      "begin_54" : 0,
      "begin_55" : 0,
      "begin_102" : 0,
      "begin_60" : 0,
      "begin_56" : 0,
      "begin_103" : 0,
      "begin_57" : 0,
      "begin_61" : 0,
      "begin_62" : 0,
      "begin_58" : 0
    },
    {
      "pad_r" : 1,
      "fused_relu" : 0,
      "fused_tanh" : 0,
      "debug_info" : "input.139",
      "pad_fill_mode" : 0,
      "pad_b" : 1,
      "pad_l" : 1,
      "top" : "input.139",
      "blob_weights" : 131,
      "K" : 32,
      "blob_biases" : 129,
      "name" : "input.139",
      "has_batch_norm" : 0,
      "type" : "convolution",
      "n_groups" : 1,
      "pad_t" : 1,
      "has_biases" : 1,
      "C" : 32,
      "bottom" : "497_1",
      "weights" : {

      },
      "Nx" : 3,
      "pad_mode" : 0,
      "pad_value" : 0,
      "Ny" : 3,
      "n_parallel" : 1
    },
    {
      "bottom" : "input.139",
      "weights" : {

      },
      "mode" : 3,
      "debug_info" : "input.141__silu_sigmoid__",
      "top" : "input.141__silu_sigmoid__",
      "type" : "activation",
      "name" : "input.141__silu_sigmoid__"
    },
    {
      "bottom" : "input.139,input.141__silu_sigmoid__",
      "alpha" : 1,
      "operation" : 1,
      "weights" : {

      },
      "fused_relu" : 0,
      "debug_info" : "input.141",
      "top" : "input.141",
      "type" : "elementwise",
      "name" : "input.141",
      "beta" : 0
    },
    {
      "pad_r" : 1,
      "fused_relu" : 0,
      "fused_tanh" : 0,
      "debug_info" : "input.143",
      "pad_fill_mode" : 0,
      "pad_b" : 1,
      "pad_l" : 1,
      "top" : "input.143",
      "blob_weights" : 135,
      "K" : 32,
      "blob_biases" : 133,
      "name" : "input.143",
      "has_batch_norm" : 0,
      "type" : "convolution",
      "n_groups" : 1,
      "pad_t" : 1,
      "has_biases" : 1,
      "C" : 32,
      "bottom" : "input.141",
      "weights" : {

      },
      "Nx" : 3,
      "pad_mode" : 0,
      "pad_value" : 0,
      "Ny" : 3,
      "n_parallel" : 1
    },
    {
      "bottom" : "input.143",
      "weights" : {

      },
      "mode" : 3,
      "debug_info" : "519__silu_sigmoid__",
      "top" : "519__silu_sigmoid__",
      "type" : "activation",
      "name" : "519__silu_sigmoid__"
    },
    {
      "bottom" : "input.143,519__silu_sigmoid__",
      "alpha" : 1,
      "operation" : 1,
      "weights" : {

      },
      "fused_relu" : 0,
      "debug_info" : "519",
      "top" : "519",
      "type" : "elementwise",
      "name" : "519",
      "beta" : 0
    },
    {
      "weights" : {

      },
      "debug_info" : "input.145",
      "top" : "input.145",
      "type" : "concat",
      "name" : "input.145",
      "bottom" : "497_0,497_1,519"
    },
    {
      "pad_r" : 0,
      "fused_relu" : 0,
      "fused_tanh" : 0,
      "debug_info" : "input.147",
      "pad_fill_mode" : 0,
      "pad_b" : 0,
      "pad_l" : 0,
      "top" : "input.147",
      "blob_weights" : 139,
      "K" : 96,
      "blob_biases" : 137,
      "name" : "input.147",
      "has_batch_norm" : 0,
      "type" : "convolution",
      "n_groups" : 1,
      "pad_t" : 0,
      "has_biases" : 1,
      "C" : 64,
      "bottom" : "input.145",
      "weights" : {

      },
      "Nx" : 1,
      "pad_mode" : 0,
      "pad_value" : 0,
      "Ny" : 1,
      "n_parallel" : 1
    },
    {
      "bottom" : "input.147",
      "weights" : {

      },
      "mode" : 3,
      "debug_info" : "input.149__silu_sigmoid__",
      "top" : "input.149__silu_sigmoid__",
      "type" : "activation",
      "name" : "input.149__silu_sigmoid__"
    },
    {
      "bottom" : "input.147,input.149__silu_sigmoid__",
      "alpha" : 1,
      "operation" : 1,
      "weights" : {

      },
      "fused_relu" : 0,
      "debug_info" : "input.149",
      "top" : "input.149",
      "type" : "elementwise",
      "name" : "input.149",
      "beta" : 0
    },
    {
      "pad_r" : 1,
      "fused_relu" : 0,
      "fused_tanh" : 0,
      "debug_info" : "input.151",
      "pad_fill_mode" : 0,
      "pad_b" : 1,
      "pad_l" : 1,
      "top" : "input.151",
      "blob_weights" : 143,
      "K" : 64,
      "blob_biases" : 141,
      "stride_x" : 2,
      "name" : "input.151",
      "has_batch_norm" : 0,
      "type" : "convolution",
      "n_groups" : 1,
      "pad_t" : 1,
      "stride_y" : 2,
      "has_biases" : 1,
      "C" : 64,
      "bottom" : "input.149",
      "weights" : {

      },
      "Nx" : 3,
      "pad_mode" : 0,
      "pad_value" : 0,
      "Ny" : 3,
      "n_parallel" : 1
    },
    {
      "bottom" : "input.151",
      "weights" : {

      },
      "mode" : 3,
      "debug_info" : "544__silu_sigmoid__",
      "top" : "544__silu_sigmoid__",
      "type" : "activation",
      "name" : "544__silu_sigmoid__"
    },
    {
      "bottom" : "input.151,544__silu_sigmoid__",
      "alpha" : 1,
      "operation" : 1,
      "weights" : {

      },
      "fused_relu" : 0,
      "debug_info" : "544",
      "top" : "544",
      "type" : "elementwise",
      "name" : "544",
      "beta" : 0
    },
    {
      "weights" : {

      },
      "debug_info" : "input.153",
      "top" : "input.153",
      "type" : "concat",
      "name" : "input.153",
      "bottom" : "544,input.131"
    },
    {
      "pad_r" : 0,
      "fused_relu" : 0,
      "fused_tanh" : 0,
      "debug_info" : "input.155",
      "pad_fill_mode" : 0,
      "pad_b" : 0,
      "pad_l" : 0,
      "top" : "input.155",
      "blob_weights" : 147,
      "K" : 192,
      "blob_biases" : 145,
      "name" : "input.155",
      "has_batch_norm" : 0,
      "type" : "convolution",
      "n_groups" : 1,
      "pad_t" : 0,
      "has_biases" : 1,
      "C" : 128,
      "bottom" : "input.153",
      "weights" : {

      },
      "Nx" : 1,
      "pad_mode" : 0,
      "pad_value" : 0,
      "Ny" : 1,
      "n_parallel" : 1
    },
    {
      "bottom" : "input.155",
      "weights" : {

      },
      "mode" : 3,
      "debug_info" : "565__silu_sigmoid__",
      "top" : "565__silu_sigmoid__",
      "type" : "activation",
      "name" : "565__silu_sigmoid__"
    },
    {
      "bottom" : "input.155,565__silu_sigmoid__",
      "alpha" : 1,
      "operation" : 1,
      "weights" : {

      },
      "fused_relu" : 0,
      "debug_info" : "565",
      "top" : "565",
      "type" : "elementwise",
      "name" : "565",
      "beta" : 0
    },
    {
      "begin_104" : 0,
      "begin_63" : 0,
      "begin_59" : 0,
      "begin_64" : 0,
      "begin_105" : 0,
      "begin_65" : 0,
      "begin_0" : 0,
      "begin_70" : 0,
      "begin_66" : 0,
      "begin_106" : 0,
      "begin_110" : 0,
      "begin_2" : 0,
      "begin_71" : 0,
      "begin_67" : 0,
      "begin_68" : 0,
      "begin_107" : 0,
      "begin_111" : 0,
      "begin_4" : 0,
      "begin_72" : 0,
      "begin_73" : 0,
      "begin_69" : 0,
      "begin_6" : 0,
      "begin_74" : 0,
      "begin_108" : 0,
      "type" : "split_nd",
      "begin_8" : 0,
      "begin_112" : 0,
      "begin_75" : 0,
      "begin_10" : 0,
      "begin_80" : 0,
      "begin_76" : 0,
      "begin_109" : 0,
      "begin_113" : 0,
      "begin_11" : 0,
      "nd_axis" : 1,
      "begin_81" : 0,
      "begin_77" : 0,
      "begin_114" : 0,
      "begin_12" : 0,
      "begin_78" : 0,
      "begin_82" : 0,
      "begin_13" : 0,
      "begin_83" : 0,
      "begin_79" : 0,
      "begin_115" : 0,
      "begin_14" : 0,
      "begin_84" : 0,
      "begin_15" : 0,
      "begin_85" : 0,
      "begin_116" : 0,
      "begin_120" : 0,
      "begin_20" : 0,
      "begin_86" : 0,
      "begin_16" : 0,
      "begin_90" : 0,
      "begin_21" : 0,
      "begin_91" : 0,
      "begin_87" : 0,
      "begin_17" : 0,
      "begin_117" : 0,
      "begin_121" : 0,
      "begin_18" : 0,
      "begin_92" : 0,
      "begin_88" : 0,
      "begin_22" : 0,
      "begin_23" : 0,
      "begin_89" : 0,
      "begin_19" : 0,
      "begin_93" : 0,
      "begin_118" : 0,
      "begin_122" : 0,
      "begin_24" : 0,
      "begin_94" : 0,
      "begin_25" : 0,
      "begin_95" : 0,
      "begin_119" : 0,
      "begin_123" : 0,
      "begin_30" : 0,
      "begin_26" : 0,
      "begin_96" : 0,
      "begin_124" : 0,
      "begin_31" : 0,
      "begin_97" : 0,
      "begin_27" : 0,
      "begin_28" : 0,
      "begin_98" : 0,
      "begin_32" : 0,
      "begin_125" : 0,
      "begin_33" : 0,
      "begin_29" : 0,
      "begin_99" : 0,
      "begin_1" : 0,
      "weights" : {

      },
      "begin_34" : 0,
      "bottom" : "565",
      "begin_3" : 0,
      "begin_126" : 0,
      "begin_35" : 0,
      "begin_5" : 0,
      "begin_36" : 0,
      "begin_40" : 0,
      "begin_127" : 0,
      "name" : "567",
      "begin_41" : 0,
      "begin_37" : 0,
      "begin_7" : 0,
      "begin_42" : 0,
      "begin_38" : 0,
      "begin_9" : 0,
      "begin_39" : 0,
      "begin_43" : 0,
      "begin_44" : 0,
      "begin_45" : 0,
      "begin_50" : 0,
      "begin_46" : 0,
      "begin_51" : 0,
      "begin_47" : 0,
      "begin_100" : 0,
      "begin_52" : 0,
      "debug_info" : "567",
      "begin_48" : 0,
      "top" : "567_0,567_1",
      "begin_101" : 0,
      "begin_53" : 0,
      "begin_49" : 0,
      "begin_54" : 0,
      "begin_55" : 0,
      "begin_102" : 0,
      "begin_60" : 0,
      "begin_56" : 0,
      "begin_103" : 0,
      "begin_57" : 0,
      "begin_61" : 0,
      "begin_62" : 0,
      "begin_58" : 0
    },
    {
      "pad_r" : 1,
      "fused_relu" : 0,
      "fused_tanh" : 0,
      "debug_info" : "input.159",
      "pad_fill_mode" : 0,
      "pad_b" : 1,
      "pad_l" : 1,
      "top" : "input.159",
      "blob_weights" : 151,
      "K" : 64,
      "blob_biases" : 149,
      "name" : "input.159",
      "has_batch_norm" : 0,
      "type" : "convolution",
      "n_groups" : 1,
      "pad_t" : 1,
      "has_biases" : 1,
      "C" : 64,
      "bottom" : "567_1",
      "weights" : {

      },
      "Nx" : 3,
      "pad_mode" : 0,
      "pad_value" : 0,
      "Ny" : 3,
      "n_parallel" : 1
    },
    {
      "bottom" : "input.159",
      "weights" : {

      },
      "mode" : 3,
      "debug_info" : "input.161__silu_sigmoid__",
      "top" : "input.161__silu_sigmoid__",
      "type" : "activation",
      "name" : "input.161__silu_sigmoid__"
    },
    {
      "bottom" : "input.159,input.161__silu_sigmoid__",
      "alpha" : 1,
      "operation" : 1,
      "weights" : {

      },
      "fused_relu" : 0,
      "debug_info" : "input.161",
      "top" : "input.161",
      "type" : "elementwise",
      "name" : "input.161",
      "beta" : 0
    },
    {
      "pad_r" : 1,
      "fused_relu" : 0,
      "fused_tanh" : 0,
      "debug_info" : "input.163",
      "pad_fill_mode" : 0,
      "pad_b" : 1,
      "pad_l" : 1,
      "top" : "input.163",
      "blob_weights" : 155,
      "K" : 64,
      "blob_biases" : 153,
      "name" : "input.163",
      "has_batch_norm" : 0,
      "type" : "convolution",
      "n_groups" : 1,
      "pad_t" : 1,
      "has_biases" : 1,
      "C" : 64,
      "bottom" : "input.161",
      "weights" : {

      },
      "Nx" : 3,
      "pad_mode" : 0,
      "pad_value" : 0,
      "Ny" : 3,
      "n_parallel" : 1
    },
    {
      "bottom" : "input.163",
      "weights" : {

      },
      "mode" : 3,
      "debug_info" : "589__silu_sigmoid__",
      "top" : "589__silu_sigmoid__",
      "type" : "activation",
      "name" : "589__silu_sigmoid__"
    },
    {
      "bottom" : "input.163,589__silu_sigmoid__",
      "alpha" : 1,
      "operation" : 1,
      "weights" : {

      },
      "fused_relu" : 0,
      "debug_info" : "589",
      "top" : "589",
      "type" : "elementwise",
      "name" : "589",
      "beta" : 0
    },
    {
      "weights" : {

      },
      "debug_info" : "input.165",
      "top" : "input.165",
      "type" : "concat",
      "name" : "input.165",
      "bottom" : "567_0,567_1,589"
    },
    {
      "pad_r" : 0,
      "fused_relu" : 0,
      "fused_tanh" : 0,
      "debug_info" : "input.167",
      "pad_fill_mode" : 0,
      "pad_b" : 0,
      "pad_l" : 0,
      "top" : "input.167",
      "blob_weights" : 159,
      "K" : 192,
      "blob_biases" : 157,
      "name" : "input.167",
      "has_batch_norm" : 0,
      "type" : "convolution",
      "n_groups" : 1,
      "pad_t" : 0,
      "has_biases" : 1,
      "C" : 128,
      "bottom" : "input.165",
      "weights" : {

      },
      "Nx" : 1,
      "pad_mode" : 0,
      "pad_value" : 0,
      "Ny" : 1,
      "n_parallel" : 1
    },
    {
      "bottom" : "input.167",
      "weights" : {

      },
      "mode" : 3,
      "debug_info" : "input.169__silu_sigmoid__",
      "top" : "input.169__silu_sigmoid__",
      "type" : "activation",
      "name" : "input.169__silu_sigmoid__"
    },
    {
      "bottom" : "input.167,input.169__silu_sigmoid__",
      "alpha" : 1,
      "operation" : 1,
      "weights" : {

      },
      "fused_relu" : 0,
      "debug_info" : "input.169",
      "top" : "input.169",
      "type" : "elementwise",
      "name" : "input.169",
      "beta" : 0
    },
    {
      "pad_r" : 1,
      "fused_relu" : 0,
      "fused_tanh" : 0,
      "debug_info" : "input.171",
      "pad_fill_mode" : 0,
      "pad_b" : 1,
      "pad_l" : 1,
      "top" : "input.171",
      "blob_weights" : 163,
      "K" : 128,
      "blob_biases" : 161,
      "stride_x" : 2,
      "name" : "input.171",
      "has_batch_norm" : 0,
      "type" : "convolution",
      "n_groups" : 1,
      "pad_t" : 1,
      "stride_y" : 2,
      "has_biases" : 1,
      "C" : 128,
      "bottom" : "input.169",
      "weights" : {

      },
      "Nx" : 3,
      "pad_mode" : 0,
      "pad_value" : 0,
      "Ny" : 3,
      "n_parallel" : 1
    },
    {
      "bottom" : "input.171",
      "weights" : {

      },
      "mode" : 3,
      "debug_info" : "614__silu_sigmoid__",
      "top" : "614__silu_sigmoid__",
      "type" : "activation",
      "name" : "614__silu_sigmoid__"
    },
    {
      "bottom" : "input.171,614__silu_sigmoid__",
      "alpha" : 1,
      "operation" : 1,
      "weights" : {

      },
      "fused_relu" : 0,
      "debug_info" : "614",
      "top" : "614",
      "type" : "elementwise",
      "name" : "614",
      "beta" : 0
    },
    {
      "weights" : {

      },
      "debug_info" : "input.173",
      "top" : "input.173",
      "type" : "concat",
      "name" : "input.173",
      "bottom" : "614,input.113"
    },
    {
      "pad_r" : 0,
      "fused_relu" : 0,
      "fused_tanh" : 0,
      "debug_info" : "input.175",
      "pad_fill_mode" : 0,
      "pad_b" : 0,
      "pad_l" : 0,
      "top" : "input.175",
      "blob_weights" : 167,
      "K" : 384,
      "blob_biases" : 165,
      "name" : "input.175",
      "has_batch_norm" : 0,
      "type" : "convolution",
      "n_groups" : 1,
      "pad_t" : 0,
      "has_biases" : 1,
      "C" : 256,
      "bottom" : "input.173",
      "weights" : {

      },
      "Nx" : 1,
      "pad_mode" : 0,
      "pad_value" : 0,
      "Ny" : 1,
      "n_parallel" : 1
    },
    {
      "bottom" : "input.175",
      "weights" : {

      },
      "mode" : 3,
      "debug_info" : "635__silu_sigmoid__",
      "top" : "635__silu_sigmoid__",
      "type" : "activation",
      "name" : "635__silu_sigmoid__"
    },
    {
      "bottom" : "input.175,635__silu_sigmoid__",
      "alpha" : 1,
      "operation" : 1,
      "weights" : {

      },
      "fused_relu" : 0,
      "debug_info" : "635",
      "top" : "635",
      "type" : "elementwise",
      "name" : "635",
      "beta" : 0
    },
    {
      "begin_104" : 0,
      "begin_63" : 0,
      "begin_59" : 0,
      "begin_64" : 0,
      "begin_105" : 0,
      "begin_65" : 0,
      "begin_0" : 0,
      "begin_70" : 0,
      "begin_66" : 0,
      "begin_106" : 0,
      "begin_110" : 0,
      "begin_2" : 0,
      "begin_71" : 0,
      "begin_67" : 0,
      "begin_68" : 0,
      "begin_107" : 0,
      "begin_111" : 0,
      "begin_4" : 0,
      "begin_72" : 0,
      "begin_73" : 0,
      "begin_69" : 0,
      "begin_6" : 0,
      "begin_74" : 0,
      "begin_108" : 0,
      "type" : "split_nd",
      "begin_8" : 0,
      "begin_112" : 0,
      "begin_75" : 0,
      "begin_10" : 0,
      "begin_80" : 0,
      "begin_76" : 0,
      "begin_109" : 0,
      "begin_113" : 0,
      "begin_11" : 0,
      "nd_axis" : 1,
      "begin_81" : 0,
      "begin_77" : 0,
      "begin_114" : 0,
      "begin_12" : 0,
      "begin_78" : 0,
      "begin_82" : 0,
      "begin_13" : 0,
      "begin_83" : 0,
      "begin_79" : 0,
      "begin_115" : 0,
      "begin_14" : 0,
      "begin_84" : 0,
      "begin_15" : 0,
      "begin_85" : 0,
      "begin_116" : 0,
      "begin_120" : 0,
      "begin_20" : 0,
      "begin_86" : 0,
      "begin_16" : 0,
      "begin_90" : 0,
      "begin_21" : 0,
      "begin_91" : 0,
      "begin_87" : 0,
      "begin_17" : 0,
      "begin_117" : 0,
      "begin_121" : 0,
      "begin_18" : 0,
      "begin_92" : 0,
      "begin_88" : 0,
      "begin_22" : 0,
      "begin_23" : 0,
      "begin_89" : 0,
      "begin_19" : 0,
      "begin_93" : 0,
      "begin_118" : 0,
      "begin_122" : 0,
      "begin_24" : 0,
      "begin_94" : 0,
      "begin_25" : 0,
      "begin_95" : 0,
      "begin_119" : 0,
      "begin_123" : 0,
      "begin_30" : 0,
      "begin_26" : 0,
      "begin_96" : 0,
      "begin_124" : 0,
      "begin_31" : 0,
      "begin_97" : 0,
      "begin_27" : 0,
      "begin_28" : 0,
      "begin_98" : 0,
      "begin_32" : 0,
      "begin_125" : 0,
      "begin_33" : 0,
      "begin_29" : 0,
      "begin_99" : 0,
      "begin_1" : 0,
      "weights" : {

      },
      "begin_34" : 0,
      "bottom" : "635",
      "begin_3" : 0,
      "begin_126" : 0,
      "begin_35" : 0,
      "begin_5" : 0,
      "begin_36" : 0,
      "begin_40" : 0,
      "begin_127" : 0,
      "name" : "637",
      "begin_41" : 0,
      "begin_37" : 0,
      "begin_7" : 0,
      "begin_42" : 0,
      "begin_38" : 0,
      "begin_9" : 0,
      "begin_39" : 0,
      "begin_43" : 0,
      "begin_44" : 0,
      "begin_45" : 0,
      "begin_50" : 0,
      "begin_46" : 0,
      "begin_51" : 0,
      "begin_47" : 0,
      "begin_100" : 0,
      "begin_52" : 0,
      "debug_info" : "637",
      "begin_48" : 0,
      "top" : "637_0,637_1",
      "begin_101" : 0,
      "begin_53" : 0,
      "begin_49" : 0,
      "begin_54" : 0,
      "begin_55" : 0,
      "begin_102" : 0,
      "begin_60" : 0,
      "begin_56" : 0,
      "begin_103" : 0,
      "begin_57" : 0,
      "begin_61" : 0,
      "begin_62" : 0,
      "begin_58" : 0
    },
    {
      "pad_r" : 1,
      "fused_relu" : 0,
      "fused_tanh" : 0,
      "debug_info" : "input.179",
      "pad_fill_mode" : 0,
      "pad_b" : 1,
      "pad_l" : 1,
      "top" : "input.179",
      "blob_weights" : 171,
      "K" : 128,
      "blob_biases" : 169,
      "name" : "input.179",
      "has_batch_norm" : 0,
      "type" : "convolution",
      "n_groups" : 1,
      "pad_t" : 1,
      "has_biases" : 1,
      "C" : 128,
      "bottom" : "637_1",
      "weights" : {

      },
      "Nx" : 3,
      "pad_mode" : 0,
      "pad_value" : 0,
      "Ny" : 3,
      "n_parallel" : 1
    },
    {
      "bottom" : "input.179",
      "weights" : {

      },
      "mode" : 3,
      "debug_info" : "input.181__silu_sigmoid__",
      "top" : "input.181__silu_sigmoid__",
      "type" : "activation",
      "name" : "input.181__silu_sigmoid__"
    },
    {
      "bottom" : "input.179,input.181__silu_sigmoid__",
      "alpha" : 1,
      "operation" : 1,
      "weights" : {

      },
      "fused_relu" : 0,
      "debug_info" : "input.181",
      "top" : "input.181",
      "type" : "elementwise",
      "name" : "input.181",
      "beta" : 0
    },
    {
      "pad_r" : 1,
      "fused_relu" : 0,
      "fused_tanh" : 0,
      "debug_info" : "input.183",
      "pad_fill_mode" : 0,
      "pad_b" : 1,
      "pad_l" : 1,
      "top" : "input.183",
      "blob_weights" : 175,
      "K" : 128,
      "blob_biases" : 173,
      "name" : "input.183",
      "has_batch_norm" : 0,
      "type" : "convolution",
      "n_groups" : 1,
      "pad_t" : 1,
      "has_biases" : 1,
      "C" : 128,
      "bottom" : "input.181",
      "weights" : {

      },
      "Nx" : 3,
      "pad_mode" : 0,
      "pad_value" : 0,
      "Ny" : 3,
      "n_parallel" : 1
    },
    {
      "bottom" : "input.183",
      "weights" : {

      },
      "mode" : 3,
      "debug_info" : "659__silu_sigmoid__",
      "top" : "659__silu_sigmoid__",
      "type" : "activation",
      "name" : "659__silu_sigmoid__"
    },
    {
      "bottom" : "input.183,659__silu_sigmoid__",
      "alpha" : 1,
      "operation" : 1,
      "weights" : {

      },
      "fused_relu" : 0,
      "debug_info" : "659",
      "top" : "659",
      "type" : "elementwise",
      "name" : "659",
      "beta" : 0
    },
    {
      "weights" : {

      },
      "debug_info" : "input.185",
      "top" : "input.185",
      "type" : "concat",
      "name" : "input.185",
      "bottom" : "637_0,637_1,659"
    },
    {
      "pad_r" : 0,
      "fused_relu" : 0,
      "fused_tanh" : 0,
      "debug_info" : "input.187",
      "pad_fill_mode" : 0,
      "pad_b" : 0,
      "pad_l" : 0,
      "top" : "input.187",
      "blob_weights" : 179,
      "K" : 384,
      "blob_biases" : 177,
      "name" : "input.187",
      "has_batch_norm" : 0,
      "type" : "convolution",
      "n_groups" : 1,
      "pad_t" : 0,
      "has_biases" : 1,
      "C" : 256,
      "bottom" : "input.185",
      "weights" : {

      },
      "Nx" : 1,
      "pad_mode" : 0,
      "pad_value" : 0,
      "Ny" : 1,
      "n_parallel" : 1
    },
    {
      "bottom" : "input.187",
      "weights" : {

      },
      "mode" : 3,
      "debug_info" : "input.221__silu_sigmoid__",
      "top" : "input.221__silu_sigmoid__",
      "type" : "activation",
      "name" : "input.221__silu_sigmoid__"
    },
    {
      "bottom" : "input.187,input.221__silu_sigmoid__",
      "alpha" : 1,
      "operation" : 1,
      "weights" : {

      },
      "fused_relu" : 0,
      "debug_info" : "input.221",
      "top" : "input.221",
      "type" : "elementwise",
      "name" : "input.221",
      "beta" : 0
    },
    {
      "pad_r" : 1,
      "fused_relu" : 0,
      "fused_tanh" : 0,
      "debug_info" : "input.189",
      "pad_fill_mode" : 0,
      "pad_b" : 1,
      "pad_l" : 1,
      "top" : "input.189",
      "blob_weights" : 183,
      "K" : 64,
      "blob_biases" : 181,
      "name" : "input.189",
      "has_batch_norm" : 0,
      "type" : "convolution",
      "n_groups" : 1,
      "pad_t" : 1,
      "has_biases" : 1,
      "C" : 64,
      "bottom" : "input.149",
      "weights" : {

      },
      "Nx" : 3,
      "pad_mode" : 0,
      "pad_value" : 0,
      "Ny" : 3,
      "n_parallel" : 1
    },
    {
      "bottom" : "input.189",
      "weights" : {

      },
      "mode" : 3,
      "debug_info" : "input.191__silu_sigmoid__",
      "top" : "input.191__silu_sigmoid__",
      "type" : "activation",
      "name" : "input.191__silu_sigmoid__"
    },
    {
      "bottom" : "input.189,input.191__silu_sigmoid__",
      "alpha" : 1,
      "operation" : 1,
      "weights" : {

      },
      "fused_relu" : 0,
      "debug_info" : "input.191",
      "top" : "input.191",
      "type" : "elementwise",
      "name" : "input.191",
      "beta" : 0
    },
    {
      "pad_r" : 1,
      "fused_relu" : 0,
      "fused_tanh" : 0,
      "debug_info" : "input.193",
      "pad_fill_mode" : 0,
      "pad_b" : 1,
      "pad_l" : 1,
      "top" : "input.193",
      "blob_weights" : 187,
      "K" : 64,
      "blob_biases" : 185,
      "name" : "input.193",
      "has_batch_norm" : 0,
      "type" : "convolution",
      "n_groups" : 1,
      "pad_t" : 1,
      "has_biases" : 1,
      "C" : 64,
      "bottom" : "input.191",
      "weights" : {

      },
      "Nx" : 3,
      "pad_mode" : 0,
      "pad_value" : 0,
      "Ny" : 3,
      "n_parallel" : 1
    },
    {
      "bottom" : "input.193",
      "weights" : {

      },
      "mode" : 3,
      "debug_info" : "input.195__silu_sigmoid__",
      "top" : "input.195__silu_sigmoid__",
      "type" : "activation",
      "name" : "input.195__silu_sigmoid__"
    },
    {
      "bottom" : "input.193,input.195__silu_sigmoid__",
      "alpha" : 1,
      "operation" : 1,
      "weights" : {

      },
      "fused_relu" : 0,
      "debug_info" : "input.195",
      "top" : "input.195",
      "type" : "elementwise",
      "name" : "input.195",
      "beta" : 0
    },
    {
      "pad_r" : 0,
      "fused_relu" : 0,
      "fused_tanh" : 0,
      "debug_info" : "724",
      "pad_fill_mode" : 0,
      "pad_b" : 0,
      "pad_l" : 0,
      "top" : "724",
      "blob_weights" : 191,
      "K" : 64,
      "blob_biases" : 189,
      "name" : "724",
      "has_batch_norm" : 0,
      "type" : "convolution",
      "n_groups" : 1,
      "pad_t" : 0,
      "has_biases" : 1,
      "C" : 64,
      "bottom" : "input.195",
      "weights" : {

      },
      "Nx" : 1,
      "pad_mode" : 0,
      "pad_value" : 0,
      "Ny" : 1,
      "n_parallel" : 1
    },
    {
      "pad_r" : 1,
      "fused_relu" : 0,
      "fused_tanh" : 0,
      "debug_info" : "input.197",
      "pad_fill_mode" : 0,
      "pad_b" : 1,
      "pad_l" : 1,
      "top" : "input.197",
      "blob_weights" : 195,
      "K" : 64,
      "blob_biases" : 193,
      "name" : "input.197",
      "has_batch_norm" : 0,
      "type" : "convolution",
      "n_groups" : 1,
      "pad_t" : 1,
      "has_biases" : 1,
      "C" : 64,
      "bottom" : "input.149",
      "weights" : {

      },
      "Nx" : 3,
      "pad_mode" : 0,
      "pad_value" : 0,
      "Ny" : 3,
      "n_parallel" : 1
    },
    {
      "bottom" : "input.197",
      "weights" : {

      },
      "mode" : 3,
      "debug_info" : "input.199__silu_sigmoid__",
      "top" : "input.199__silu_sigmoid__",
      "type" : "activation",
      "name" : "input.199__silu_sigmoid__"
    },
    {
      "bottom" : "input.197,input.199__silu_sigmoid__",
      "alpha" : 1,
      "operation" : 1,
      "weights" : {

      },
      "fused_relu" : 0,
      "debug_info" : "input.199",
      "top" : "input.199",
      "type" : "elementwise",
      "name" : "input.199",
      "beta" : 0
    },
    {
      "pad_r" : 1,
      "fused_relu" : 0,
      "fused_tanh" : 0,
      "debug_info" : "input.201",
      "pad_fill_mode" : 0,
      "pad_b" : 1,
      "pad_l" : 1,
      "top" : "input.201",
      "blob_weights" : 199,
      "K" : 64,
      "blob_biases" : 197,
      "name" : "input.201",
      "has_batch_norm" : 0,
      "type" : "convolution",
      "n_groups" : 1,
      "pad_t" : 1,
      "has_biases" : 1,
      "C" : 64,
      "bottom" : "input.199",
      "weights" : {

      },
      "Nx" : 3,
      "pad_mode" : 0,
      "pad_value" : 0,
      "Ny" : 3,
      "n_parallel" : 1
    },
    {
      "bottom" : "input.201",
      "weights" : {

      },
      "mode" : 3,
      "debug_info" : "input.203__silu_sigmoid__",
      "top" : "input.203__silu_sigmoid__",
      "type" : "activation",
      "name" : "input.203__silu_sigmoid__"
    },
    {
      "bottom" : "input.201,input.203__silu_sigmoid__",
      "alpha" : 1,
      "operation" : 1,
      "weights" : {

      },
      "fused_relu" : 0,
      "debug_info" : "input.203",
      "top" : "input.203",
      "type" : "elementwise",
      "name" : "input.203",
      "beta" : 0
    },
    {
      "pad_r" : 0,
      "fused_relu" : 0,
      "fused_tanh" : 0,
      "debug_info" : "752",
      "pad_fill_mode" : 0,
      "pad_b" : 0,
      "pad_l" : 0,
      "top" : "752",
      "blob_weights" : 203,
      "K" : 64,
      "blob_biases" : 201,
      "name" : "752",
      "has_batch_norm" : 0,
      "type" : "convolution",
      "n_groups" : 1,
      "pad_t" : 0,
      "has_biases" : 1,
      "C" : 1,
      "bottom" : "input.203",
      "weights" : {

      },
      "Nx" : 1,
      "pad_mode" : 0,
      "pad_value" : 0,
      "Ny" : 1,
      "n_parallel" : 1
    },
    {
      "weights" : {

      },
      "debug_info" : "xi.1",
      "top" : "xi.1",
      "type" : "concat",
      "name" : "xi.1",
      "bottom" : "724,752"
    },
    {
      "pad_r" : 1,
      "fused_relu" : 0,
      "fused_tanh" : 0,
      "debug_info" : "input.205",
      "pad_fill_mode" : 0,
      "pad_b" : 1,
      "pad_l" : 1,
      "top" : "input.205",
      "blob_weights" : 207,
      "K" : 128,
      "blob_biases" : 205,
      "name" : "input.205",
      "has_batch_norm" : 0,
      "type" : "convolution",
      "n_groups" : 1,
      "pad_t" : 1,
      "has_biases" : 1,
      "C" : 64,
      "bottom" : "input.169",
      "weights" : {

      },
      "Nx" : 3,
      "pad_mode" : 0,
      "pad_value" : 0,
      "Ny" : 3,
      "n_parallel" : 1
    },
    {
      "bottom" : "input.205",
      "weights" : {

      },
      "mode" : 3,
      "debug_info" : "input.207__silu_sigmoid__",
      "top" : "input.207__silu_sigmoid__",
      "type" : "activation",
      "name" : "input.207__silu_sigmoid__"
    },
    {
      "bottom" : "input.205,input.207__silu_sigmoid__",
      "alpha" : 1,
      "operation" : 1,
      "weights" : {

      },
      "fused_relu" : 0,
      "debug_info" : "input.207",
      "top" : "input.207",
      "type" : "elementwise",
      "name" : "input.207",
      "beta" : 0
    },
    {
      "pad_r" : 1,
      "fused_relu" : 0,
      "fused_tanh" : 0,
      "debug_info" : "input.209",
      "pad_fill_mode" : 0,
      "pad_b" : 1,
      "pad_l" : 1,
      "top" : "input.209",
      "blob_weights" : 211,
      "K" : 64,
      "blob_biases" : 209,
      "name" : "input.209",
      "has_batch_norm" : 0,
      "type" : "convolution",
      "n_groups" : 1,
      "pad_t" : 1,
      "has_biases" : 1,
      "C" : 64,
      "bottom" : "input.207",
      "weights" : {

      },
      "Nx" : 3,
      "pad_mode" : 0,
      "pad_value" : 0,
      "Ny" : 3,
      "n_parallel" : 1
    },
    {
      "bottom" : "input.209",
      "weights" : {

      },
      "mode" : 3,
      "debug_info" : "input.211__silu_sigmoid__",
      "top" : "input.211__silu_sigmoid__",
      "type" : "activation",
      "name" : "input.211__silu_sigmoid__"
    },
    {
      "bottom" : "input.209,input.211__silu_sigmoid__",
      "alpha" : 1,
      "operation" : 1,
      "weights" : {

      },
      "fused_relu" : 0,
      "debug_info" : "input.211",
      "top" : "input.211",
      "type" : "elementwise",
      "name" : "input.211",
      "beta" : 0
    },
    {
      "pad_r" : 0,
      "fused_relu" : 0,
      "fused_tanh" : 0,
      "debug_info" : "782",
      "pad_fill_mode" : 0,
      "pad_b" : 0,
      "pad_l" : 0,
      "top" : "782",
      "blob_weights" : 215,
      "K" : 64,
      "blob_biases" : 213,
      "name" : "782",
      "has_batch_norm" : 0,
      "type" : "convolution",
      "n_groups" : 1,
      "pad_t" : 0,
      "has_biases" : 1,
      "C" : 64,
      "bottom" : "input.211",
      "weights" : {

      },
      "Nx" : 1,
      "pad_mode" : 0,
      "pad_value" : 0,
      "Ny" : 1,
      "n_parallel" : 1
    },
    {
      "pad_r" : 1,
      "fused_relu" : 0,
      "fused_tanh" : 0,
      "debug_info" : "input.213",
      "pad_fill_mode" : 0,
      "pad_b" : 1,
      "pad_l" : 1,
      "top" : "input.213",
      "blob_weights" : 219,
      "K" : 128,
      "blob_biases" : 217,
      "name" : "input.213",
      "has_batch_norm" : 0,
      "type" : "convolution",
      "n_groups" : 1,
      "pad_t" : 1,
      "has_biases" : 1,
      "C" : 64,
      "bottom" : "input.169",
      "weights" : {

      },
      "Nx" : 3,
      "pad_mode" : 0,
      "pad_value" : 0,
      "Ny" : 3,
      "n_parallel" : 1
    },
    {
      "bottom" : "input.213",
      "weights" : {

      },
      "mode" : 3,
      "debug_info" : "input.215__silu_sigmoid__",
      "top" : "input.215__silu_sigmoid__",
      "type" : "activation",
      "name" : "input.215__silu_sigmoid__"
    },
    {
      "bottom" : "input.213,input.215__silu_sigmoid__",
      "alpha" : 1,
      "operation" : 1,
      "weights" : {

      },
      "fused_relu" : 0,
      "debug_info" : "input.215",
      "top" : "input.215",
      "type" : "elementwise",
      "name" : "input.215",
      "beta" : 0
    },
    {
      "pad_r" : 1,
      "fused_relu" : 0,
      "fused_tanh" : 0,
      "debug_info" : "input.217",
      "pad_fill_mode" : 0,
      "pad_b" : 1,
      "pad_l" : 1,
      "top" : "input.217",
      "blob_weights" : 223,
      "K" : 64,
      "blob_biases" : 221,
      "name" : "input.217",
      "has_batch_norm" : 0,
      "type" : "convolution",
      "n_groups" : 1,
      "pad_t" : 1,
      "has_biases" : 1,
      "C" : 64,
      "bottom" : "input.215",
      "weights" : {

      },
      "Nx" : 3,
      "pad_mode" : 0,
      "pad_value" : 0,
      "Ny" : 3,
      "n_parallel" : 1
    },
    {
      "bottom" : "input.217",
      "weights" : {

      },
      "mode" : 3,
      "debug_info" : "input.219__silu_sigmoid__",
      "top" : "input.219__silu_sigmoid__",
      "type" : "activation",
      "name" : "input.219__silu_sigmoid__"
    },
    {
      "bottom" : "input.217,input.219__silu_sigmoid__",
      "alpha" : 1,
      "operation" : 1,
      "weights" : {

      },
      "fused_relu" : 0,
      "debug_info" : "input.219",
      "top" : "input.219",
      "type" : "elementwise",
      "name" : "input.219",
      "beta" : 0
    },
    {
      "pad_r" : 0,
      "fused_relu" : 0,
      "fused_tanh" : 0,
      "debug_info" : "810",
      "pad_fill_mode" : 0,
      "pad_b" : 0,
      "pad_l" : 0,
      "top" : "810",
      "blob_weights" : 227,
      "K" : 64,
      "blob_biases" : 225,
      "name" : "810",
      "has_batch_norm" : 0,
      "type" : "convolution",
      "n_groups" : 1,
      "pad_t" : 0,
      "has_biases" : 1,
      "C" : 1,
      "bottom" : "input.219",
      "weights" : {

      },
      "Nx" : 1,
      "pad_mode" : 0,
      "pad_value" : 0,
      "Ny" : 1,
      "n_parallel" : 1
    },
    {
      "weights" : {

      },
      "debug_info" : "xi.3",
      "top" : "xi.3",
      "type" : "concat",
      "name" : "xi.3",
      "bottom" : "782,810"
    },
    {
      "pad_r" : 1,
      "fused_relu" : 0,
      "fused_tanh" : 0,
      "debug_info" : "input.223",
      "pad_fill_mode" : 0,
      "pad_b" : 1,
      "pad_l" : 1,
      "top" : "input.223",
      "blob_weights" : 231,
      "K" : 256,
      "blob_biases" : 229,
      "name" : "input.223",
      "has_batch_norm" : 0,
      "type" : "convolution",
      "n_groups" : 1,
      "pad_t" : 1,
      "has_biases" : 1,
      "C" : 64,
      "bottom" : "input.221",
      "weights" : {

      },
      "Nx" : 3,
      "pad_mode" : 0,
      "pad_value" : 0,
      "Ny" : 3,
      "n_parallel" : 1
    },
    {
      "bottom" : "input.223",
      "weights" : {

      },
      "mode" : 3,
      "debug_info" : "input.225__silu_sigmoid__",
      "top" : "input.225__silu_sigmoid__",
      "type" : "activation",
      "name" : "input.225__silu_sigmoid__"
    },
    {
      "bottom" : "input.223,input.225__silu_sigmoid__",
      "alpha" : 1,
      "operation" : 1,
      "weights" : {

      },
      "fused_relu" : 0,
      "debug_info" : "input.225",
      "top" : "input.225",
      "type" : "elementwise",
      "name" : "input.225",
      "beta" : 0
    },
    {
      "pad_r" : 1,
      "fused_relu" : 0,
      "fused_tanh" : 0,
      "debug_info" : "input.227",
      "pad_fill_mode" : 0,
      "pad_b" : 1,
      "pad_l" : 1,
      "top" : "input.227",
      "blob_weights" : 235,
      "K" : 64,
      "blob_biases" : 233,
      "name" : "input.227",
      "has_batch_norm" : 0,
      "type" : "convolution",
      "n_groups" : 1,
      "pad_t" : 1,
      "has_biases" : 1,
      "C" : 64,
      "bottom" : "input.225",
      "weights" : {

      },
      "Nx" : 3,
      "pad_mode" : 0,
      "pad_value" : 0,
      "Ny" : 3,
      "n_parallel" : 1
    },
    {
      "bottom" : "input.227",
      "weights" : {

      },
      "mode" : 3,
      "debug_info" : "input.229__silu_sigmoid__",
      "top" : "input.229__silu_sigmoid__",
      "type" : "activation",
      "name" : "input.229__silu_sigmoid__"
    },
    {
      "bottom" : "input.227,input.229__silu_sigmoid__",
      "alpha" : 1,
      "operation" : 1,
      "weights" : {

      },
      "fused_relu" : 0,
      "debug_info" : "input.229",
      "top" : "input.229",
      "type" : "elementwise",
      "name" : "input.229",
      "beta" : 0
    },
    {
      "pad_r" : 0,
      "fused_relu" : 0,
      "fused_tanh" : 0,
      "debug_info" : "840",
      "pad_fill_mode" : 0,
      "pad_b" : 0,
      "pad_l" : 0,
      "top" : "840",
      "blob_weights" : 239,
      "K" : 64,
      "blob_biases" : 237,
      "name" : "840",
      "has_batch_norm" : 0,
      "type" : "convolution",
      "n_groups" : 1,
      "pad_t" : 0,
      "has_biases" : 1,
      "C" : 64,
      "bottom" : "input.229",
      "weights" : {

      },
      "Nx" : 1,
      "pad_mode" : 0,
      "pad_value" : 0,
      "Ny" : 1,
      "n_parallel" : 1
    },
    {
      "pad_r" : 1,
      "fused_relu" : 0,
      "fused_tanh" : 0,
      "debug_info" : "input.231",
      "pad_fill_mode" : 0,
      "pad_b" : 1,
      "pad_l" : 1,
      "top" : "input.231",
      "blob_weights" : 243,
      "K" : 256,
      "blob_biases" : 241,
      "name" : "input.231",
      "has_batch_norm" : 0,
      "type" : "convolution",
      "n_groups" : 1,
      "pad_t" : 1,
      "has_biases" : 1,
      "C" : 64,
      "bottom" : "input.221",
      "weights" : {

      },
      "Nx" : 3,
      "pad_mode" : 0,
      "pad_value" : 0,
      "Ny" : 3,
      "n_parallel" : 1
    },
    {
      "bottom" : "input.231",
      "weights" : {

      },
      "mode" : 3,
      "debug_info" : "input.233__silu_sigmoid__",
      "top" : "input.233__silu_sigmoid__",
      "type" : "activation",
      "name" : "input.233__silu_sigmoid__"
    },
    {
      "bottom" : "input.231,input.233__silu_sigmoid__",
      "alpha" : 1,
      "operation" : 1,
      "weights" : {

      },
      "fused_relu" : 0,
      "debug_info" : "input.233",
      "top" : "input.233",
      "type" : "elementwise",
      "name" : "input.233",
      "beta" : 0
    },
    {
      "pad_r" : 1,
      "fused_relu" : 0,
      "fused_tanh" : 0,
      "debug_info" : "input.235",
      "pad_fill_mode" : 0,
      "pad_b" : 1,
      "pad_l" : 1,
      "top" : "input.235",
      "blob_weights" : 247,
      "K" : 64,
      "blob_biases" : 245,
      "name" : "input.235",
      "has_batch_norm" : 0,
      "type" : "convolution",
      "n_groups" : 1,
      "pad_t" : 1,
      "has_biases" : 1,
      "C" : 64,
      "bottom" : "input.233",
      "weights" : {

      },
      "Nx" : 3,
      "pad_mode" : 0,
      "pad_value" : 0,
      "Ny" : 3,
      "n_parallel" : 1
    },
    {
      "bottom" : "input.235",
      "weights" : {

      },
      "mode" : 3,
      "debug_info" : "input.237__silu_sigmoid__",
      "top" : "input.237__silu_sigmoid__",
      "type" : "activation",
      "name" : "input.237__silu_sigmoid__"
    },
    {
      "bottom" : "input.235,input.237__silu_sigmoid__",
      "alpha" : 1,
      "operation" : 1,
      "weights" : {

      },
      "fused_relu" : 0,
      "debug_info" : "input.237",
      "top" : "input.237",
      "type" : "elementwise",
      "name" : "input.237",
      "beta" : 0
    },
    {
      "pad_r" : 0,
      "fused_relu" : 0,
      "fused_tanh" : 0,
      "debug_info" : "868",
      "pad_fill_mode" : 0,
      "pad_b" : 0,
      "pad_l" : 0,
      "top" : "868",
      "blob_weights" : 251,
      "K" : 64,
      "blob_biases" : 249,
      "name" : "868",
      "has_batch_norm" : 0,
      "type" : "convolution",
      "n_groups" : 1,
      "pad_t" : 0,
      "has_biases" : 1,
      "C" : 1,
      "bottom" : "input.237",
      "weights" : {

      },
      "Nx" : 1,
      "pad_mode" : 0,
      "pad_value" : 0,
      "Ny" : 1,
      "n_parallel" : 1
    },
    {
      "weights" : {

      },
      "debug_info" : "xi",
      "top" : "xi",
      "type" : "concat",
      "name" : "xi",
      "bottom" : "840,868"
    },
    {
      "name" : "873",
      "weights" : {

      },
      "dst_w" : -1,
      "version" : 1,
      "dst_n" : 1,
      "dst_nd_rank" : 3,
      "type" : "reshape",
      "dst_h" : 65,
      "mode" : 0,
      "dynamic_shape" : false,
      "bottom" : "xi.1",
      "debug_info" : "873",
      "dst_seq" : 1,
      "dst_k" : 1,
      "top" : "873"
    },
    {
      "name" : "875",
      "weights" : {

      },
      "dst_w" : -1,
      "version" : 1,
      "dst_n" : 1,
      "dst_nd_rank" : 3,
      "type" : "reshape",
      "dst_h" : 65,
      "mode" : 0,
      "dynamic_shape" : false,
      "bottom" : "xi.3",
      "debug_info" : "875",
      "dst_seq" : 1,
      "dst_k" : 1,
      "top" : "875"
    },
    {
      "name" : "877",
      "weights" : {

      },
      "dst_w" : -1,
      "version" : 1,
      "dst_n" : 1,
      "dst_nd_rank" : 3,
      "type" : "reshape",
      "dst_h" : 65,
      "mode" : 0,
      "dynamic_shape" : false,
      "bottom" : "xi",
      "debug_info" : "877",
      "dst_seq" : 1,
      "dst_k" : 1,
      "top" : "877"
    },
    {
      "bottom" : "873,875,877",
      "weights" : {

      },
      "nd_mode" : true,
      "axis" : 2,
      "debug_info" : "879",
      "top" : "879",
      "type" : "general_concat",
      "name" : "879"
    },
    {
      "begin_104" : 0,
      "begin_63" : 0,
      "begin_59" : 0,
      "begin_64" : 0,
      "begin_105" : 0,
      "begin_65" : 0,
      "begin_0" : 64,
      "begin_70" : 0,
      "begin_66" : 0,
      "begin_106" : 0,
      "begin_110" : 0,
      "begin_2" : 0,
      "begin_71" : 0,
      "begin_67" : 0,
      "begin_68" : 0,
      "begin_107" : 0,
      "begin_111" : 0,
      "begin_4" : 0,
      "begin_72" : 0,
      "begin_73" : 0,
      "begin_69" : 0,
      "begin_6" : 0,
      "begin_74" : 0,
      "begin_108" : 0,
      "type" : "split_nd",
      "begin_8" : 0,
      "begin_112" : 0,
      "begin_75" : 0,
      "begin_10" : 0,
      "begin_80" : 0,
      "begin_76" : 0,
      "begin_109" : 0,
      "begin_113" : 0,
      "begin_11" : 0,
      "nd_axis" : 1,
      "begin_81" : 0,
      "begin_77" : 0,
      "begin_114" : 0,
      "begin_12" : 0,
      "begin_78" : 0,
      "begin_82" : 0,
      "begin_13" : 0,
      "begin_83" : 0,
      "begin_79" : 0,
      "begin_115" : 0,
      "begin_14" : 0,
      "begin_84" : 0,
      "begin_15" : 0,
      "begin_85" : 0,
      "begin_116" : 0,
      "begin_120" : 0,
      "begin_20" : 0,
      "begin_86" : 0,
      "begin_16" : 0,
      "begin_90" : 0,
      "begin_21" : 0,
      "begin_91" : 0,
      "begin_87" : 0,
      "begin_17" : 0,
      "begin_117" : 0,
      "begin_121" : 0,
      "begin_18" : 0,
      "begin_92" : 0,
      "begin_88" : 0,
      "begin_22" : 0,
      "begin_23" : 0,
      "begin_89" : 0,
      "begin_19" : 0,
      "begin_93" : 0,
      "begin_118" : 0,
      "begin_122" : 0,
      "begin_24" : 0,
      "begin_94" : 0,
      "begin_25" : 0,
      "begin_95" : 0,
      "begin_119" : 0,
      "begin_123" : 0,
      "begin_30" : 0,
      "begin_26" : 0,
      "begin_96" : 0,
      "begin_124" : 0,
      "begin_31" : 0,
      "begin_97" : 0,
      "begin_27" : 0,
      "begin_28" : 0,
      "begin_98" : 0,
      "begin_32" : 0,
      "begin_125" : 0,
      "begin_33" : 0,
      "begin_29" : 0,
      "begin_99" : 0,
      "begin_1" : 1,
      "weights" : {

      },
      "begin_34" : 0,
      "bottom" : "879",
      "begin_3" : 0,
      "begin_126" : 0,
      "begin_35" : 0,
      "begin_5" : 0,
      "begin_36" : 0,
      "begin_40" : 0,
      "begin_127" : 0,
      "name" : "881",
      "begin_41" : 0,
      "begin_37" : 0,
      "begin_7" : 0,
      "begin_42" : 0,
      "begin_38" : 0,
      "begin_9" : 0,
      "begin_39" : 0,
      "begin_43" : 0,
      "begin_44" : 0,
      "begin_45" : 0,
      "begin_50" : 0,
      "begin_46" : 0,
      "begin_51" : 0,
      "begin_47" : 0,
      "begin_100" : 0,
      "begin_52" : 0,
      "debug_info" : "881",
      "begin_48" : 0,
      "top" : "881_0,881_1",
      "begin_101" : 0,
      "begin_53" : 0,
      "begin_49" : 0,
      "begin_54" : 0,
      "begin_55" : 0,
      "begin_102" : 0,
      "begin_60" : 0,
      "begin_56" : 0,
      "begin_103" : 0,
      "begin_57" : 0,
      "begin_61" : 0,
      "begin_62" : 0,
      "begin_58" : 0
    },
    {
      "name" : "888",
      "weights" : {

      },
      "dst_w" : 5040,
      "version" : 1,
      "dst_n" : 1,
      "dst_nd_rank" : 4,
      "type" : "reshape",
      "dst_h" : 16,
      "mode" : 0,
      "dynamic_shape" : false,
      "bottom" : "881_0",
      "debug_info" : "888",
      "dst_seq" : 1,
      "dst_k" : 4,
      "top" : "888"
    },
    {
      "axis_h" : 2,
      "axis_w" : 0,
      "bottom" : "888",
      "axis_k" : 1,
      "axis_n" : 3,
      "axis_seq" : 4,
      "weights" : {

      },
      "debug_info" : "transpose_0",
      "top" : "transpose_0",
      "type" : "transpose",
      "name" : "transpose_0"
    },
    {
      "bottom" : "transpose_0",
      "weights" : {

      },
      "debug_info" : "input",
      "top" : "input",
      "C" : 2,
      "type" : "softmax",
      "name" : "input"
    },
    {
      "pad_r" : 0,
      "fused_relu" : 0,
      "fused_tanh" : 0,
      "debug_info" : "896",
      "pad_fill_mode" : 0,
      "pad_b" : 0,
      "pad_l" : 0,
      "top" : "896",
      "blob_weights" : 253,
      "K" : 16,
      "name" : "896",
      "has_batch_norm" : 0,
      "type" : "convolution",
      "n_groups" : 1,
      "pad_t" : 0,
      "has_biases" : 0,
      "C" : 1,
      "bottom" : "input",
      "weights" : {

      },
      "Nx" : 1,
      "pad_mode" : 0,
      "pad_value" : 0,
      "Ny" : 1,
      "n_parallel" : 1
    },
    {
      "name" : "distance",
      "weights" : {

      },
      "dst_w" : 5040,
      "version" : 1,
      "dst_n" : 1,
      "dst_nd_rank" : 3,
      "type" : "reshape",
      "dst_h" : 4,
      "mode" : 0,
      "dynamic_shape" : false,
      "bottom" : "896",
      "debug_info" : "distance",
      "dst_seq" : 1,
      "dst_k" : 1,
      "top" : "distance"
    },
    {
      "begin_104" : 0,
      "begin_63" : 0,
      "begin_59" : 0,
      "begin_64" : 0,
      "begin_105" : 0,
      "begin_65" : 0,
      "begin_0" : 0,
      "begin_70" : 0,
      "begin_66" : 0,
      "begin_106" : 0,
      "begin_110" : 0,
      "begin_2" : 0,
      "begin_71" : 0,
      "begin_67" : 0,
      "begin_68" : 0,
      "begin_107" : 0,
      "begin_111" : 0,
      "begin_4" : 0,
      "begin_72" : 0,
      "begin_73" : 0,
      "begin_69" : 0,
      "begin_6" : 0,
      "begin_74" : 0,
      "begin_108" : 0,
      "type" : "split_nd",
      "begin_8" : 0,
      "begin_112" : 0,
      "begin_75" : 0,
      "begin_10" : 0,
      "begin_80" : 0,
      "begin_76" : 0,
      "begin_109" : 0,
      "begin_113" : 0,
      "begin_11" : 0,
      "nd_axis" : 1,
      "begin_81" : 0,
      "begin_77" : 0,
      "begin_114" : 0,
      "begin_12" : 0,
      "begin_78" : 0,
      "begin_82" : 0,
      "begin_13" : 0,
      "begin_83" : 0,
      "begin_79" : 0,
      "begin_115" : 0,
      "begin_14" : 0,
      "begin_84" : 0,
      "begin_15" : 0,
      "begin_85" : 0,
      "begin_116" : 0,
      "begin_120" : 0,
      "begin_20" : 0,
      "begin_86" : 0,
      "begin_16" : 0,
      "begin_90" : 0,
      "begin_21" : 0,
      "begin_91" : 0,
      "begin_87" : 0,
      "begin_17" : 0,
      "begin_117" : 0,
      "begin_121" : 0,
      "begin_18" : 0,
      "begin_92" : 0,
      "begin_88" : 0,
      "begin_22" : 0,
      "begin_23" : 0,
      "begin_89" : 0,
      "begin_19" : 0,
      "begin_93" : 0,
      "begin_118" : 0,
      "begin_122" : 0,
      "begin_24" : 0,
      "begin_94" : 0,
      "begin_25" : 0,
      "begin_95" : 0,
      "begin_119" : 0,
      "begin_123" : 0,
      "begin_30" : 0,
      "begin_26" : 0,
      "begin_96" : 0,
      "begin_124" : 0,
      "begin_31" : 0,
      "begin_97" : 0,
      "begin_27" : 0,
      "begin_28" : 0,
      "begin_98" : 0,
      "begin_32" : 0,
      "begin_125" : 0,
      "begin_33" : 0,
      "begin_29" : 0,
      "begin_99" : 0,
      "begin_1" : 0,
      "weights" : {

      },
      "begin_34" : 0,
      "bottom" : "distance",
      "begin_3" : 0,
      "begin_126" : 0,
      "begin_35" : 0,
      "begin_5" : 0,
      "begin_36" : 0,
      "begin_40" : 0,
      "begin_127" : 0,
      "name" : "900",
      "begin_41" : 0,
      "begin_37" : 0,
      "begin_7" : 0,
      "begin_42" : 0,
      "begin_38" : 0,
      "begin_9" : 0,
      "begin_39" : 0,
      "begin_43" : 0,
      "begin_44" : 0,
      "begin_45" : 0,
      "begin_50" : 0,
      "begin_46" : 0,
      "begin_51" : 0,
      "begin_47" : 0,
      "begin_100" : 0,
      "begin_52" : 0,
      "debug_info" : "900",
      "begin_48" : 0,
      "top" : "900_0,900_1",
      "begin_101" : 0,
      "begin_53" : 0,
      "begin_49" : 0,
      "begin_54" : 0,
      "begin_55" : 0,
      "begin_102" : 0,
      "begin_60" : 0,
      "begin_56" : 0,
      "begin_103" : 0,
      "begin_57" : 0,
      "begin_61" : 0,
      "begin_62" : 0,
      "begin_58" : 0
    },
    {
      "top" : "anchor_points",
      "w" : 5040,
      "h" : 2,
      "name" : "anchor_points",
      "nd_rank" : 3,
      "type" : "load_constant",
      "k" : 1,
      "bottom" : "",
      "debug_info" : "anchor_points",
      "n" : 1,
      "weights" : {

      },
      "constant_blob" : 255
    },
    {
      "alpha" : -1,
      "bottom" : "900_0",
      "weights" : {

      },
      "mode" : 6,
      "debug_info" : "_neg_y_x1y1",
      "top" : "_neg_y_x1y1",
      "type" : "activation",
      "name" : "_neg_y_x1y1",
      "beta" : 0
    },
    {
      "bottom" : "_neg_y_x1y1,anchor_points",
      "alpha" : 1,
      "operation" : 0,
      "weights" : {

      },
      "fused_relu" : 0,
      "debug_info" : "x1y1",
      "top" : "x1y1",
      "type" : "elementwise",
      "name" : "x1y1",
      "beta" : 0
    },
    {
      "bottom" : "anchor_points,900_1",
      "alpha" : 1,
      "operation" : 0,
      "weights" : {

      },
      "fused_relu" : 0,
      "debug_info" : "x2y2",
      "top" : "x2y2",
      "type" : "elementwise",
      "name" : "x2y2",
      "beta" : 0
    },
    {
      "bottom" : "x1y1,x2y2",
      "alpha" : 1,
      "operation" : 0,
      "weights" : {

      },
      "fused_relu" : 0,
      "debug_info" : "904",
      "top" : "904",
      "type" : "elementwise",
      "name" : "904",
      "beta" : 0
    },
    {
      "bottom" : "904",
      "alpha" : 0.5,
      "operation" : 1,
      "weights" : {

      },
      "fused_relu" : 0,
      "debug_info" : "_inversed_c_xy",
      "top" : "_inversed_c_xy",
      "type" : "elementwise",
      "name" : "_inversed_c_xy",
      "beta" : 0
    },
    {
      "alpha" : -1,
      "bottom" : "x1y1",
      "weights" : {

      },
      "mode" : 6,
      "debug_info" : "_neg_y_wh",
      "top" : "_neg_y_wh",
      "type" : "activation",
      "name" : "_neg_y_wh",
      "beta" : 0
    },
    {
      "bottom" : "_neg_y_wh,x2y2",
      "alpha" : 1,
      "operation" : 0,
      "weights" : {

      },
      "fused_relu" : 0,
      "debug_info" : "wh",
      "top" : "wh",
      "type" : "elementwise",
      "name" : "wh",
      "beta" : 0
    },
    {
      "bottom" : "_inversed_c_xy,wh",
      "weights" : {

      },
      "nd_mode" : true,
      "axis" : 1,
      "debug_info" : "909",
      "top" : "909",
      "type" : "general_concat",
      "name" : "909"
    },
    {
      "top" : "671",
      "w" : 5040,
      "h" : 1,
      "name" : "671",
      "nd_rank" : 2,
      "type" : "load_constant",
      "k" : 1,
      "bottom" : "",
      "debug_info" : "671",
      "n" : 1,
      "weights" : {

      },
      "constant_blob" : 257
    },
    {
      "bottom" : "909,671",
      "alpha" : 1,
      "operation" : 1,
      "weights" : {

      },
      "fused_relu" : 0,
      "debug_info" : "dbox",
      "nd_mode" : true,
      "top" : "dbox",
      "type" : "elementwise",
      "name" : "dbox",
      "beta" : 0
    },
    {
      "bottom" : "881_1",
      "weights" : {

      },
      "mode" : 3,
      "debug_info" : "911",
      "top" : "911",
      "type" : "activation",
      "name" : "911"
    },
    {
      "bottom" : "dbox,911",
      "weights" : {

      },
      "nd_mode" : true,
      "debug_info" : "913",
      "axis" : 1,
      "top" : "var_913",
      "type" : "general_concat",
      "name" : "913",
      "attributes" : {
        "is_output" : 1
      }
    }
  ],
  "transform_params" : {
    "image" : {
      "bias_a" : 0,
      "bias_g" : 0,
      "bias_r" : 0,
      "bias_b" : 0,
      "center_mean" : 0,
      "is_network_bgr" : 0,
      "scale" : 0.0039215688593685627
    }
  },
  "storage" : "model.espresso.weights",
  "metadata_in_weights" : [

  ],
  "properties" : {

  },
  "analyses" : {

  },
  "format_version" : 200
}